Wi-Fi/model/base33_cnn.pt (torch, 717041 bytes, 117 tensors)

weight f4 [16]
0.9440156 1.0186259 0.89827776 0.9373035 0.9615302 0.93467784 0.9510388 0.9502904
0.95835656 0.99762696 0.9559059 0.92167234 0.86860025 0.9300657 0.9350753 0.9851211
00000000: 02ab 713f 5562 823f 88f5 653f 1ff3 6f3f
00000010: d826 763f 0c47 6f3f 4777 733f 3b46 733f
00000020: db56 753f 7b64 7f3f 40b6 743f b8f2 6b3f
00000030: 965c 5e3f c918 6e3f 1861 6f3f e530 7c3f

bias f4 [16]
-0.00044147702 -0.00013608663 -0.00023136676 -9.021148e-05 -7.78691e-05 -0.00016837605 -2.9888133e-05 -0.00018753755
-8.430946e-05 0.00013224485 -0.00016656968 -0.0003091701 3.2662265e-05 -6.418899e-05 -0.00010753503 0.0002566835
00000000: 0b76 e7b9 7ab2 0eb9 0b9b 72b9 eb2f bdb8
00000010: a84d a3b8 1a8e 30b9 47b8 fab7 baa5 44b9
00000020: 4ccf b0b8 35ab 0a39 35a9 2eb9 1c18 a2b9
00000030: d7fe 0838 349d 86b8 6e84 e1b8 7a93 8639

running_mean f4 [16]
-0.1781269 0.09730656 -0.05454531 0.046773594 0.039094225 0.2736132 0.21763353 0.24690093
-0.13963717 0.0024574075 -0.057266213 -0.14229666 0.18851201 -0.047646172 0.11146227 0.10131592
00000000: e666 36be a948 c73d e76a 5fbd ab95 3f3d
00000010: 4421 203d 0817 8c3e 53db 5e3e 99d3 7c3e
00000020: 0cfd 0ebe 750c 213b fa8f 6abd 37b6 11be
00000030: 4b09 413e a228 43bd 5546 e43d b97e cf3d

running_var f4 [16]
0.142361 0.04099776 0.39634526 0.11235072 0.33567202 0.28575468 0.08764927 0.21058413
0.27951908 0.18096687 0.6610396 0.069593824 0.23577425 0.10255954 0.59503496 0.13964558
00000000: 15c7 113e 44ed 273d c4ed ca3e 2218 e63d
00000010: 34dd ab3e 704e 923e 7681 b33d 5ea3 573e
00000020: 201d 8f3e 614f 393e e439 293f 3587 8e3d
00000030: ce6e 713e bc0a d23d 3654 183f 40ff 0e3e

weight f4 [16]
0.93721133 1.025604 0.8786184 0.98020816 0.9700368 0.946191 0.9283985 0.9562331
0.9561614 0.9599046 0.9481767 0.95691025 0.93588316 0.96979904 0.89009243 0.98316306
00000000: 15ed 6f3f fe46 833f 23ed 603f ecee 7a3f
00000010: 5554 783f 9339 723f 86ab 6d3f b1cb 743f
00000020: fec6 743f 4fbc 753f b5bb 723f 12f8 743f
00000030: 0a96 6f3f c044 783f 19dd 633f 93b0 7b3f

bias f4 [16]
-5.9701715e-06 0.0004716206 -0.00017914073 0.00026880944 -4.943223e-05 5.1064897e-05 -0.00019191336 -0.0004076596
0.0002800901 -6.626291e-05 2.9360215e-05 -6.475452e-06 -0.00025213358 0.00036070673 -3.404367e-05 0.00020773975
00000000: 6253 c8b6 d843 f739 b9d7 3bb9 feee 8c39
00000010: 7455 4fb8 842e 5638 5a3c 49b9 25bb d5b9
00000020: 0fd9 9239 a1f6 8ab8 954a f637 b647 d9b6
00000030: cc30 84b9 3d1d bd39 1dca 0eb8 b7d4 5939

running_mean f4 [16]
0.17700143 0.06835419 -0.085553 0.21284185 -0.13037518 0.005788399 0.067316785 0.15929708
0.19380116 -0.22131576 -0.24876109 -0.19468208 -0.05822748 0.13232714 -0.1816309 0.11694136
00000000: dd3f 353e 48fd 8b3d 6936 afbd 37f3 593e
00000010: 1281 05be 9cac bd3b 62dd 893d c61e 233e
00000020: d073 463e 99a0 62be 3abb 7ebe bd5a 47be
00000030: f07f 6ebd c480 073e 73fd 39be f47e ef3d

running_var f4 [16]
0.14251924 0.04100166 0.39662057 0.11249267 0.33504483 0.28620544 0.087619014 0.21004696
0.27934074 0.18140496 0.661072 0.06978278 0.23598656 0.10257089 0.59573984 0.13960357
00000000: 90f0 113e 5bf1 273d da11 cb3e 8f62 e63d
00000010: ff8a ab3e 8589 923e 9971 b33d 8d16 573e
00000020: c005 8f3e 39c2 393e 043c 293f 46ea 8e3d
00000030: 76a6 713e b010 d23d 6882 183f 3df4 0e3e

weight f4 [32]
0.84609467 0.8175338 0.8464337 0.7941023 0.8943755 0.8694631 0.79557 0.83544934
0.84343594 0.83616644 0.83799845 0.8489898 0.87130976 0.82417357 0.8942414 0.847112
0.8352594 0.8118761 0.8037742 0.8935355 0.80834746 0.8443001 0.8500637 0.8794892
0.8759062 0.7792107 0.8146556 0.83253175 0.8282006 0.8561663 0.78719914 0.8616812
00000000: a999 583f e549 513f e1af 583f 4a4a 4b3f
00000010: cbf5 643f 2295 5e3f 7aaa 4b3f 02e0 553f
00000020: 6beb 573f 010f 563f 1187 563f 6557 593f
00000030: 280e 5f3f 0afd 523f 01ed 643f 55dc 583f
00000040: 8fd3 553f 1dd7 4f3f 25c4 4d3f bebe 643f
00000050: dcef 4e3f 0d24 583f c69d 593f 3426 613f
00000060: 643b 603f 5a7a 473f 458d 503f cd20 553f
00000070: f404 543f b72d 5b3f e285 493f 2497 5c3f

bias f4 [32]
0.025029814 -0.037686303 0.067863606 -0.084514216 -0.040509354 0.021416603 0.012581278 0.03267716
-0.1528792 0.04966611 0.021312974 -0.039740823 -0.07523598 -0.02137427 0.07061087 0.014581029
-0.035175584 0.08502223 -0.07392737 -0.07448386 -0.052571807 0.009748797 -0.026969753 -0.09997152
-0.01644868 -0.07758888 0.0659301 -0.048076972 -0.10547848 0.0030146178 0.0004448617 -0.097739704
00000000: 530b cd3c f45c 1abd 13fc 8a3d ca15 adbd
00000010: 23ed 25bd df71 af3c b421 4e3c 7cd8 053d
00000020: 5d8c 1cbe b16e 4b3d 8c98 ae3c 46c7 22bd
00000030: 5215 9abd 1819 afbc 6f9c 903d 45e5 6e3c
00000040: 4614 10bd 2320 ae3d 3c67 97bd fe8a 98bd
00000050: 8955 57bd 6bb9 1f3c acef dcbc debd ccbd
00000060: 62bf 86bc ebe6 9ebd 5c06 873d 5cec 44bd
00000070: 1a05 d8bd e590 453b 543c e939 c12b c8bd

running_mean f4 [32]
-0.006566978 -0.06305592 0.049374174 -0.03773122 -0.064083435 0.029012833 0.064081475 -0.051902965
0.019554878 -0.04986807 0.06810425 -0.0020360476 -0.0735394 -0.015334604 -0.021532984 -0.067810096
-0.0683703 0.05391904 -0.062528804 -0.038781974 -0.0097446 0.017865429 0.0590089 -0.08424684
-0.07206324 -0.006993713 -0.02924399 -0.018415159 -0.052289583 -0.0729937 -0.07603442 0.03888444
00000000: ce2f d7bb 7623 81bd 933c 4a3d 0d8c 1abd
00000010: 2d3e 83bd 52ac ed3c 263d 833d 3498 54bd
00000020: 8d31 a03c 7642 4cbd 3e7a 8b3d 366f 05bb
00000030: d39b 96bd fe3d 7bbc f165 b0bc 05e0 8abd
00000040: ba05 8cbd 36da 5c3d 1a0f 80bd d9d9 1ebd
00000050: d1a7 1fbc 855a 923c 51b3 713d 9b89 acbd
00000060: e495 93bd 842b e5bb 1891 efbc 63db 96bc
00000070: 9a2d 56bd b97d 95bd efb7 9bbd 4a45 1f3d

running_var f4 [32]
2.371445 1.9682856 3.208245 1.8632824 2.0276906 2.6574626 2.535979 1.9262052
2.2276783 1.97305 2.9565728 1.8563739 2.4554465 1.8283958 2.0529778 2.2424774
2.9339623 2.2077494 2.8612726 2.656521 2.647424 2.5705745 3.6269312 2.2073212
3.0571337 2.77794 2.5309038 2.7503712 3.0919666 2.4401932 2.307972 2.151949
00000000: c1c5 1740 c8f0 fb3f e353 4d40 0a80 ee3f
00000010: afc5 0140 de13 2a40 7b4d 2240 e48d f63f
00000020: 4892 0e40 e78c fc3f 7d38 3d40 a99d ed3f
00000030: 0926 1d40 e008 ea3f fd63 0340 c084 0f40
00000040: 0ac6 3b40 c44b 0d40 171f 3740 7104 2a40
00000050: 656f 2940 4b84 2440 a41f 6840 c044 0d40
00000060: 14a8 4340 c5c9 3140 54fa 2140 1506 3040
00000070: c8e2 4540 202c 1c40 d0b5 1340 88b9 0940

weight f4 [32]
0.8669808 0.8725096 0.8163731 0.83630127 0.8205715 0.8653846 0.83188176 0.8190612
0.8529148 0.8494982 0.857759 0.8203931 0.88716054 0.8836345 0.8666576 0.8071643
0.84082 0.86469305 0.85851836 0.83194995 0.855706 0.91235685 0.8991736 0.81949776
0.8861207 0.8631777 0.8708446 0.8763735 0.82815886 0.87058944 0.87364566 0.8186564
00000000: 74f2 5d3f ca5c 5f3f d4fd 503f d717 563f
00000010: f910 523f d889 5d3f 34f6 543f ffad 513f
00000020: a058 5a3f b778 593f 1896 5b3f 4805 523f
00000030: f41c 633f df35 623f 46dd 5d3f 52a2 4e3f
00000040: fb3f 573f 865c 5d3f dcc7 5b3f acfa 543f
00000050: 8c0f 5b3f 3890 693f 3e30 663f 9bca 513f
00000060: ced8 623f 37f9 5c3f acef 5e3f 045a 603f
00000070: 3802 543f f3de 5e3f 3ea7 5f3f 7793 513f

bias f4 [32]
0.089993685 -0.014267113 0.036328297 0.013605756 0.055700485 0.045142315 0.035288077 -0.05536159
0.0630545 0.046282105 0.05063681 0.056206714 -0.016873367 -0.035680827 -0.009518628 -0.1306478
-0.06688666 0.050086137 -0.09335323 0.007082757 0.08406527 -0.028882882 -0.092942305 -0.03995663
0.055524457 0.06341085 0.10291865 0.011663081 -0.035502102 -0.068778336 0.014892204 -0.008352016
00000000: 9c4e b83d 9cc0 69bc fbcc 143d adea 5e3c
00000010: 3126 643d 26e7 383d 3b8a 103d d6c2 62bd
00000020: b822 813d 4e92 3d3d 8b68 4f3d 0339 663d
00000030: 043a 8abc 0f26 12bd 05f4 1bbc 89c8 05be
00000040: e0fb 88bd 1f27 4d3d fa2f bfbd 7916 e83b
00000050: 6a2a ac3d cb9b ecbc 8958 bebd 90a9 23bd
00000060: 9d6d 633d 8cdd 813d 03c7 d23d 8216 3f3c
00000070: a76a 11bd a8db 8cbd 6efe 733c e5d6 08bc

running_mean f4 [32]
-0.07374954 -0.038285967 -0.060125016 -0.03133391 0.033765677 -0.07562295 -0.0024380584 0.0030833487
0.0282696 0.07786821 0.07407113 -0.0014935575 0.07949167 -0.019278973 -0.04984635 -0.0050378623
-0.048467368 0.032840244 -0.012358928 0.021877905 0.036622785 0.010402809 0.03196643 0.07990447
0.04959614 0.03592856 -0.013087369 0.07703719 0.05363796 0.024136223 -0.043308407 0.05241878
00000000: 000a 97bd bfd1 1cbd a645 76bd fc57 00bd
00000010: e14d 0a3d 35e0 9abd d5c7 1fbb 0212 4a3b
00000020: a695 e73c 5e79 9f3d 9bb2 973d 79c3 c3ba
00000030: 87cc a23d f0ee 9dbc b02b 4cbd a714 a5bb
00000040: b885 46bd 7e83 063d 1a7d 4abc 4b39 b33c
00000050: c601 163d 8b70 2a3c 3bef 023d f4a4 a33d
00000060: 5225 4b3d d329 133d 676c 56bc adc5 9d3d
00000070: 7ab3 5b3d 54b9 c53c 2864 31bd 13b5 563d

running_var f4 [32]
2.4172177 2.0161047 3.3657813 1.8206097 2.0268443 2.6205988 2.2642586 1.8873273
2.2236276 2.0112967 3.0298479 1.8990502 2.4722726 1.8304089 2.113933 2.4127138
2.7355778 2.168739 2.7031295 2.6695895 2.6314845 2.4489467 3.5269206 2.0016701
3.1259305 2.709806 2.5161445 2.9971106 3.0829315 2.5424068 2.4563742 2.242146
00000000: b2b3 1a40 dc07 0140 f668 5740 bd09 e93f
00000010: d1b7 0140 e4b7 2740 9de9 1040 f193 f13f
00000020: ea4f 0e40 16b9 0040 07e9 4140 1414 f33f
00000030: b739 1e40 d74a ea3f ae4a 0740 e769 1a40
00000040: b513 2f40 9fcc 0a40 1300 2d40 8eda 2a40
00000050: 3e6a 2840 8bbb 1c40 11b9 6140 5d1b 0040
00000060: 3f0f 4840 766d 2d40 8308 2140 a9d0 3f40
00000070: c04e 4540 cbb6 2240 3c35 1d40 527f 0f40

weight f4 [32]
1.0023896 0.8850985 1.0105413 0.92856276 1.0053002 0.98093206 0.94697696 0.9488669
0.98262084 0.95617044 1.0017412 0.94580346 0.9607729 0.9655877 0.93040234 0.9609644
0.9496856 0.90803796 0.8971208 0.9409739 0.9351164 0.9502247 0.931227 0.9480781
0.97125226 0.9658202 0.94452375 1.0529337 0.98721033 0.9857853 0.9472109 0.97199047
00000000: 4d4e 803f d195 623f 6b59 813f 4ab6 6d3f
00000010: adad 803f 5d1e 7b3f 156d 723f f1e8 723f
00000020: 0a8d 7b3f 96c7 743f 0e39 803f 2d20 723f
00000030: 36f5 753f c130 773f d92e 6e3f c301 763f
00000040: 981e 733f 2d75 683f b5a9 653f aae3 703f
00000050: ca63 6f3f ed41 733f e564 6e3f 3fb5 723f
00000060: fda3 783f fe3f 773f 4fcc 713f 88c6 863f
00000070: d1b9 7c3f 6d5c 7c3f 6a7c 723f 5ed4 783f

bias f4 [32]
0.037399676 -0.08053912 0.028321568 -0.009987467 0.05837872 0.039102405 0.04332073 0.10566692
-0.04674477 0.02026409 -0.044662334 0.050586145 0.003558568 0.09988206 0.22739473 0.008375911
-0.040488962 -0.056660503 0.0051938496 -0.04587322 0.060612 -0.011874536 -0.029971905 0.051313013
-0.023940159 -0.023024527 0.01710805 -0.20134318 -0.14091565 0.02362176 -0.1343092 -0.08026371
00000000: 6730 193d b2f1 a4bd a202 e83c 79a2 23bc
00000010: 861e 6f3d d829 203d 1471 313d e667 d83d
00000020: 7277 3fbd e000 a63c daef 36bd 6b33 4f3d
00000030: dd36 693b f78e cc3d 2ada 683e 1e3b 093c
00000040: c1d7 25bd d814 68bd 2b31 aa3b 8fe5 3bbd
00000050: 4a44 783d 6a8d 42bc a487 f5bc 982d 523d
00000060: 271e c4bc ef9d bcbc 2e26 8c3c e82c 4ebe
00000070: 314c 10be 6c82 c13c 5a88 09be 4d61 a4bd

running_mean f4 [32]
0.05084885 0.03575113 -0.020125963 0.010844403 -0.09282542 -0.05266639 -0.30842522 -0.15481235
-0.08800538 0.038909454 -0.046427764 0.08535664 0.02647365 -0.035325184 -0.16043839 -0.006051626
0.039420284 0.17710039 0.12630188 0.00791524 0.056270897 -0.04699354 -0.14194696 0.07933381
-0.14821738 0.080464385 0.09322067 -0.05955367 0.2129707 0.12305939 0.113501474 -0.060925897
00000000: e246 503d c76f 123d 34df a4bc b9ac 313c
00000010: 411b bebd b6b8 57bd e9e9 9dbe 2187 1ebe
00000020: 2a3c b4bd 855f 1f3d 0a2b 3ebd 76cf ae3d
00000030: 45df d83c 24b1 10bd f649 24be b84c c6bb
00000040: 2a77 213d ce59 353e 4855 013e ecae 013c
00000050: 507c 663d 4c7c 40bd 8b5a 11be c479 a23d
00000060: 4cc6 17be 83ca a43d 7bea be3d 8dee 73bd
00000070: fe14 5a3e 9006 fc3d 7673 e83d 6f8d 79bd

running_var f4 [32]
1.5253154 1.2553408 1.9070995 1.3164614 1.9767473 1.1078386 1.220941 1.6643263
2.0478756 1.7184379 1.6885145 2.162293 1.2054474 1.4831192 3.2667835 2.5589628
1.804802 1.8944695 1.9289002 1.8651868 1.1780776 1.7010897 1.3928344 1.6121174
1.9605278 2.0882754 1.8949658 1.4860692 1.3114532 1.6693381 1.9981143 2.3194678
00000000: 893d c33f 02af a03f d61b f43f cf81 a83f
00000010: 0e06 fd3f a8cd 8d3f cb47 9c3f a508 d53f
00000020: 6510 0340 c6f5 db3f 3e21 d83f 0263 0a40
00000030: 1a4c 9a3f dad6 bd3f fb12 5140 0cc6 2340
00000040: c003 e73f fa7d f23f 34e6 f63f 71be ee3f
00000050: 3fcb 963f 4fbd d93f 6648 b23f dd59 ce3f
00000060: 93f2 fa3f 4ea6 0540 3d8e f23f 8437 be3f
00000070: b3dd a73f dfac d53f 36c2 ff3f 2972 1440

weight f4 [32]
0.9686326 0.9845357 0.9943913 0.9711973 0.9534957 0.9342999 0.9936924 0.9453162
0.92209023 0.9409994 0.9093377 0.9349454 0.9264268 0.9592938 1.0119851 0.9124128
0.9825536 0.94847775 0.9433743 0.9311029 0.91655 1.0040643 1.0290918 0.94360507
0.96106434 0.9266264 0.89145744 0.9382485 0.9735606 0.9626938 0.96507096 0.9635372
00000000: 4ef8 773f 880a 7c3f 6e90 7e3f 63a0 783f
00000010: 4b18 743f 472e 6f3f a062 7e3f 3e00 723f
00000020: 1b0e 6c3f 56e5 703f 5bca 683f 9558 6f3f
00000030: 4f2a 6d3f 4794 753f ba88 813f e393 693f
00000040: a288 7b3f 70cf 723f fa80 713f c25c 6e3f
00000050: 05a3 6a3f 2e85 803f 48b9 833f 1a90 713f
00000060: 5008 763f 6337 6d3f 8e36 643f 0e31 703f
00000070: 443b 793f 1a73 763f e40e 773f 60aa 763f

bias f4 [32]
-0.049911235 -0.14493324 0.05498862 0.07122923 0.11374534 0.03398991 -0.012479731 0.16808142
0.0035791008 -0.07461654 -0.057670783 -0.12066602 -0.046881508 -0.12985153 -0.048799407 -0.19973283
-0.03372549 -0.08572325 -0.092993416 0.025031298 -0.07910609 -0.007735411 -0.10123817 0.006096718
-0.008285749 0.11723085 0.18708248 -0.031392545 -0.034838427 0.021130495 -0.021986509 0.03282121
00000000: b96f 4cbd 6169 14be bf3b 613d a1e0 913d
00000010: 51f3 e83d 0139 0b3d c977 4cbc 891d 2c3e
00000020: 598f 6a3b 8ed0 98bd 3338 6cbd bf1f f7bd
00000030: d306 40bd cdf7 04be e3e1 47bd c386 4cbe
00000040: bd23 0abd ac8f afbd 5573 bebd 700e cd3c
00000050: 6002 a2bd 5579 fdbb f555 cfbd fac6 c73b
00000060: f3c0 07bc ba16 f03d 8d92 3f3e 7895 00bd
00000070: bdb2 0ebd dc19 ad3c 0d1d b4bc 886f 063d

running_mean f4 [32]
-0.24824584 -0.088246204 -0.11207591 -0.03223881 0.1262415 -0.06664516 -0.019099234 0.08922036
-0.1498512 -0.04807438 -0.08315944 0.1861114 -0.015695482 -0.10137959 0.16418506 0.14755842
0.010772679 0.016688975 0.21598902 -0.04584598 -0.044400606 0.08788593 0.14031719 -0.038166028
-0.11799158 -0.11762891 -0.2337144 0.005678766 -0.17850557 -0.09094996 0.14016974 0.10841225
00000000: 2834 7ebe 6dba b4bd 0e88 e5bd d80c 04bd
00000010: 7445 013e 427d 88bd ff75 9cbc 2ab9 b63d
00000020: 9872 19be a4e9 44bd 7f4f aabd fd93 3e3e
00000030: d093 80bc 1aa0 cfbd 2120 283e 8e19 173e
00000040: e47f 303c 51b7 883c 3a2c 5d3e ffc8 3bbd
00000050: 69dd 35bd 8afd b33d 4faf 0f3e fb53 1cbd
00000060: 92a5 f1bd 6de7 f0bd d452 6fbe f114 ba3b
00000070: 2aca 36be f943 babd a888 0f3e 3e07 de3d

running_var f4 [32]
1.533128 1.2075124 1.8888763 1.230903 1.8715304 1.0776511 1.1930156 1.5910674
1.9774811 1.6225507 1.6728134 2.097049 1.2306029 1.4452623 3.3459883 2.3984053
1.7789195 1.8871291 2.0022397 1.896644 1.2134103 1.6603675 1.3829919 1.5975264
1.8901924 2.1364934 1.9369829 1.5281134 1.2989813 1.5816042 2.1336448 2.4469364
00000000: 8a3d c43f c48f 9a3f b3c6 f13f 3b8e 9d3f
00000010: 4f8e ef3f 79f0 893f bcb4 983f 19a8 cb3f
00000020: 1a1e fd3f beaf cf3f c01e d63f 0d36 0640
00000030: 6584 9d3f 5bfe b83f ac24 5640 797f 1940
00000040: a2b3 e33f 728d f13f b224 0040 3bc5 f23f
00000050: 0751 9b3f ec86 d43f e105 b13f bf7b cc3f
00000060: d3f1 f13f 4fbc 0840 0eef f73f 3899 c33f
00000070: 0545 a63f 0272 ca3f a38d 0840 9b9a 1c40

weight f4 [32]
0.8552502 0.9166345 1.013454 1.0635868 0.9013971 0.94499105 0.8901305 0.9754015
1.0128727 0.976161 1.0481926 1.0057535 0.9926537 0.90857023 0.9122486 0.9960292
0.89035106 0.8588695 0.9813852 1.0229484 0.93323284 1.0370209 0.9833459 0.96454096
0.9584815 0.8906205 0.85801643 0.8956594 1.0633516 0.9474706 0.86214364 0.9933995
00000000: adf1 5a3f 8fa8 6a3f dcb8 813f 9d23 883f
00000010: f6c1 663f efea 713f 98df 633f eab3 793f
00000020: d0a5 813f b0e5 793f 2d2b 863f 88bc 803f
00000030: 8e1e 7e3f 0f98 683f 2089 693f c5fb 7e3f
00000040: 0cee 633f dfde 5b3f 0f3c 7b3f f9ef 823f
00000050: 59e8 6e3f 1abd 843f 8fbc 7b3f 28ec 763f
00000060: 0b5f 753f b5ff 633f f7a6 5b3f ef49 653f
00000070: e81b 883f 6f8d 723f 72b5 5c3f 6e4f 7e3f

bias f4 [32]
0.14609353 0.11951105 0.23578335 0.20432733 0.09800349 0.14243932 0.16698219 0.17243408
0.17263985 0.19334309 0.15177791 0.2524443 0.25415823 0.19292365 0.082072265 0.23480105
0.12042636 0.18404785 0.20942493 0.28837842 0.25704902 0.24838544 0.22121854 0.17409867
0.09730606 0.21444012 0.16279377 0.11693961 0.24285789 0.17935337 0.18258472 0.20016488
00000000: 8b99 153e 36c2 f43d 3171 713e 2f3b 513e
00000010: 0eb6 c83d 9ddb 113e 61fd 2a3e 8f92 303e
00000020: 80c8 303e bbfb 453e ab6b 1b3e 6140 813e
00000030: 0721 823e c78d 453e 8115 a83d b06f 703e
00000040: 18a2 f63d 0a77 3c3e 7d73 563e 56a6 933e
00000050: ee9b 833e c158 7e3e 1d87 623e ec46 323e
00000060: 6648 c73d 3196 5b3e 69b3 263e 097e ef3d
00000070: bdaf 783e 69a8 373e 7df7 3a3e 06f8 4c3e

running_mean f4 [32]
-0.14850506 -0.029538589 0.19259444 0.098850735 -0.031507257 0.0145993605 -0.17612389 0.03787713
0.02906581 0.113118246 0.1113191 0.22931398 0.17836414 0.00076491333 0.07767036 0.13390388
-0.112078406 -0.05227772 0.092298195 0.042979427 0.06400577 0.009436678 0.10891256 0.027218971
-0.05038434 0.08919828 0.030724054 -0.11013805 0.09966249 -0.0389819 -0.012396794 0.13801737
00000000: b611 18be e9fa f1bc 7a37 453e 4172 ca3d
00000010: c10d 01bd 2832 6f3c d259 34be 0d25 1b3d
00000020: 6c1b ee3c 8aaa e73d 45fb e33d 49d1 6a3e
00000030: 17a5 363e 7784 483a a311 9f3d 191e 093e
00000040: 5d89 e5bd 2a21 56bd d606 bd3d 320b 303d
00000050: 7515 833d 4c9c 1a3c 8c0d df3d 52fa de3c
00000060: cf5f 4ebd 96ad b63d 03b1 fb3c 0f90 e1bd
00000070: d91b cc3d 7cab 1fbd ec1b 4bbc 6d54 0d3e

running_var f4 [32]
0.44526508 0.48531914 0.3226936 0.34271795 0.34699717 0.4047816 0.33183187 0.31646106
0.34604007 0.50115216 0.39504263 0.3152144 0.3447195 0.3441233 0.36117837 0.36075205
0.46646464 0.4555558 0.45379257 0.4581412 0.34757292 0.2790302 0.23589113 0.41287494
0.39383382 0.33384028 0.5870674 0.4823058 0.38031992 0.4318435 0.4643468 0.30482975
00000000: c9f9 e33e c07b f83e 1838 a53e ba78 af3e
00000010: 9da9 b13e 893f cf3e dee5 a93e 2f07 a23e
00000020: 2a2c b13e 824b 003f 0743 ca3e c863 a13e
00000030: 137f b03e ee30 b03e 5fec b83e 7eb4 b83e
00000040: 74d4 ee3e 9c3e e93e 8057 e83e 7c91 ea3e
00000050: 14f5 b13e 0cdd 8e3e 728d 713e 5864 d33e
00000060: 96a4 c93e 1ded aa3e 0d4a 163f c9f0 f63e
00000070: 4bb9 c23e 971a dd3e ddbe ed3e a512 9c3e

weight f4 [32]
0.90902764 0.936 0.88219583 0.8210533 0.9091657 0.91915214 0.9100129 0.8578459
0.8111262 0.89337635 0.8402041 0.7971005 0.78635174 0.9248808 0.9507252 0.87444115
0.9211211 0.86808324 0.8861955 0.76089174 0.76447374 0.8648989 0.7974988 0.8727652
0.9364581 0.9369584 0.96426487 0.93222326 0.869812 0.8390624 0.9335403 0.85721064
00000000: 09b6 683f b29d 6f3f 96d7 613f 8d30 523f
00000010: 15bf 683f 8e4d 6b3f 9bf6 683f ca9b 5b3f
00000020: f7a5 4f3f 50b4 643f 9e17 573f c70e 4c3f
00000030: 594e 493f fdc4 6c3f ba62 733f 60db 5f3f
00000040: 98ce 6b3f b43a 5e3f b5dd 623f cdc9 423f
00000050: 8db4 433f 046a 5d3f e228 4c3f 8a6d 5f3f
00000060: b8bb 6f3f 81dc 6f3f 10da 763f 2fa6 6e3f
00000070: 00ac 5e3f cbcc 563f 7ffc 6e3f 2872 5b3f

bias f4 [32]
0.05067598 -0.0072658104 -0.059711646 0.061532896 -0.054449745 -0.0029440876 -0.030754786 -0.015643872
0.024400987 -0.008993283 -0.013367724 0.0051743463 -0.0085493885 -0.0065420014 -0.013658255 -0.058607843
0.034389228 0.028812924 -0.0017368752 -0.04552372 0.06464761 -0.09561371 0.025000088 0.017904956
0.051741373 -0.0011585573 -0.043876562 0.024864871 0.036636617 0.020910157 0.008209921 0.027235867
00000000: 9e91 4f3d 0916 eebb 3394 74bd eb09 7c3d
00000010: b206 5fbd 98f1 40bb 76f1 fbbc 9427 80bc
00000020: 94e4 c73c 9058 13bc 4c04 5bbc 908d a93b
00000030: bc12 0cbc 495e d6bb e0c6 5fbc c70e 70bd
00000040: b8db 0c3d 1509 ec3c dca7 e3ba 1577 3abd
00000050: f765 843d 1fd1 c3bd fccc cc3c 6aad 923c
00000060: c3ee 533d bbda 97ba e9b7 33bd 6ab1 cb3c
00000070: 4710 163d c74b ab3c e882 063c c11d df3c

running_mean f4 [32]
0.0072494512 -0.04973727 0.048180908 0.117569596 0.17031991 0.08720879 0.061579663 0.051078685
0.039093193 0.043284327 -0.064386524 0.05718975 -0.14743337 -0.073209815 0.0793288 0.047164932
-0.1036357 0.0014207143 0.07662139 0.014236445 0.02892045 0.035188 0.015864799 0.0017730291
0.023950338 -0.022228392 0.051482882 -0.07868515 0.06177674 0.08087451 0.050355908 0.06581129
00000000: ce8c ed3b 4fb9 4bbd 5859 453d 54c8 f03d
00000010: 5868 2e3e 869a b23d f53a 7c3d e237 513d
00000020: 2f20 203d e84a 313d 15dd 83bd cd3f 6a3d
00000030: c6f8 16be 07ef 95bd 2377 a23d 0430 413d
00000040: f43e d4bd 4337 ba3a adeb 9c3d fa3f 693c
00000050: 94ea ec3c 4b21 103d e5f6 813c fc64 e83a
00000060: 8033 c43c 5118 b6bc b7df 523d ae25 a1bd
00000070: 9b09 7d3d 89a1 a53d ff41 4e3d 12c8 863d

running_var f4 [32]
0.4402233 0.48741114 0.32003316 0.34603313 0.34315056 0.38194498 0.33226144 0.3134334
0.335004 0.4969779 0.39819008 0.30514404 0.34498677 0.34783846 0.3552021 0.35577005
0.4865431 0.45111573 0.4508084 0.45990992 0.34924385 0.27926505 0.24312142 0.41071713
0.39351526 0.3286966 0.5892493 0.5077293 0.38033527 0.43209708 0.48342374 0.3098781
00000000: f364 e13e f48d f93e 63db a33e 412b b13e
00000010: 6eb1 af3e 4b8e c33e 2c1e aa3e 587a a03e
00000020: a585 ab3e e373 fe3e 92df cb3e d73b 9c3e
00000030: 1ba2 b03e e217 b23e 0ddd b53e 7e27 b63e
00000040: 2d1c f93e a4f8 e63e 5cd0 e63e 5079 eb3e
00000050: 17d0 b23e d4fb 8e3e d2f4 783e 8449 d23e
00000060: d57a c93e ec4a a83e 0bd9 163f 8cfa 013f
00000070: 4ebb c23e d43b dd3e 5183 f73e 58a8 9e3e

weight f4 [16]
1.0781221 1.0481588 0.9001028 0.99618536 1.1018407 0.997967 1.0283593 1.056317
1.0504571 0.92631334 0.9926311 0.950782 1.0561292 1.0368695 1.0517926 1.1530182
00000000: e8ff 893f 112a 863f 236d 663f 0106 7f3f
00000010: 1e09 8d3f c47a 7f3f 47a1 833f 6535 873f
00000020: 6175 863f df22 6d3f 121d 7e3f 7366 733f
00000030: 3e2f 873f 24b8 843f 24a1 863f 1a96 933f

bias f4 [16]
-0.052277673 0.07173331 0.09340566 0.009194624 -0.05014356 -0.07632276 -0.04823011 -0.053941127
-0.033677705 -0.0707524 -0.020922309 -0.0396936 -0.009103812 0.045258854 0.0031886024 0.052068837
00000000: 1d21 56bd eae8 923d 774b bf3d 0ca5 163c
00000010: 5563 4dbd 1b4f 9cbd f08c 45bd 5ff1 5cbd
00000020: a2f1 09bd a2e6 90bd 4365 abbc c295 22bd
00000030: 2828 15bc 5961 393d dff7 503b 2246 553d

running_mean f4 [16]
0.09350964 0.022206593 0.03885579 0.07350778 0.00092375686 0.10421797 0.013014635 -0.18643744
0.08269217 -0.14988542 0.1482537 -0.116875395 0.05005238 0.030095488 0.12167932 0.08913513
00000000: fb81 bf3d 9aea b53c 4027 1f3d 3f8b 963d
00000010: 4628 723a 3b70 d53d 563b 553c 75e9 3ebe
00000020: 835a a93d 907b 19be d1cf 173e 5e5c efbd
00000030: b903 4d3d d08a f63c 0233 f93d 7b8c b63d

running_var f4 [16]
1.7858124 2.6955562 3.1793253 1.3410747 1.9875973 2.7277472 3.0273588 2.0737514
2.522544 1.6407672 2.8230152 1.823484 2.480448 3.2637365 2.7199845 2.2927952
00000000: 8095 e43f fe83 2c40 117a 4b40 56a8 ab3f
00000010: 9769 fe3f 6993 2e40 3fc0 4140 58b8 0440
00000020: 5c71 2140 a904 d23f 48ac 3440 ec67 e93f
00000030: a9bf 1e40 0fe1 5040 3a14 2e40 28bd 1240

weight f4 [16]
1.0173793 1.031603 0.974563 0.95544404 1.1307014 0.9794425 0.9576548 1.111099
1.089185 1.0155628 0.96721625 1.0551171 1.0776806 1.007115 1.0512537 1.0242953
00000000: 7c39 823f 910b 843f f67c 793f fb97 743f
00000010: d3ba 903f bebc 7a3f dd28 753f 7e38 8e3f
00000020: 6a6a 8b3f f6fd 813f 7c9b 773f 140e 873f
00000030: 70f1 893f 25e9 803f 7b8f 863f 1c1c 833f

bias f4 [16]
-0.0021959215 -0.075566396 0.033214856 -0.09308678 0.06806586 -0.025453756 -0.07815516 -0.018152367
-0.046126533 -0.00041776602 -0.024996454 0.071253374 -0.013436807 -0.12156933 -0.04462881 0.032025836
00000000: 73e9 0fbb 8ec2 9abd 4d0c 083d 48a4 bebd
00000010: 1d66 8b3d 6584 d0bc d00f a0bd 46b4 94bc
00000020: 2def 3cbd 9b07 dbb9 5dc5 ccbc 4aed 913d
00000030: 0e26 5cbc 57f9 f8bd b3cc 36bd 862d 033d

running_mean f4 [16]
0.10479656 0.14022516 -0.044300042 0.2544631 0.023701102 -0.04967083 0.07202581 -0.15722711
-0.045465525 0.02982563 -0.15238833 0.17020725 -0.12793557 -0.1312328 0.06628584 0.02617592
00000000: 949f d63d 2f97 0f3e f673 35bd fd48 823e
00000010: d028 c23c a473 4bbd 4582 933d 2500 21be
00000020: 0f3a 3abd e154 f43c b00b 1cbe cf4a 2e3e
00000030: 8b01 03be e461 06be dfc0 873d e26e d63c

running_var f4 [16]
1.7754451 2.6885083 3.2504687 1.350962 2.0156612 2.8570118 3.008757 2.1248767
2.475734 1.6537435 2.8123722 1.8088036 2.6464398 3.3272197 2.7372575 2.3369505
00000000: c941 e33f 8510 2c40 ae07 5040 53ec ac3f
00000010: 9800 0140 48d9 3640 7a8f 4040 fbfd 0740
00000020: 6d72 1e40 dead d33f e8fd 3340 e086 e73f
00000030: 455f 2940 2bf1 5440 3a2f 2f40 9990 1540

weight f4 [16]
1.0076038 1.0311409 0.9817341 1.013033 1.0117717 0.98848706 1.0049043 0.9887443
1.0428014 1.0011935 0.99437267 1.0605819 1.0199884 1.1346978 1.034514 1.0669093
00000000: 29f9 803f 6dfc 833f ed52 7b3f 11ab 813f
00000010: bc81 813f 7d0d 7d3f b4a0 803f 591e 7d3f
00000020: 847a 853f 1c27 803f 358f 7e3f 26c1 873f
00000030: fb8e 823f c73d 913f f46a 843f 7c90 883f

bias f4 [16]
0.024990706 0.07250176 -0.037164904 -0.03154334 0.0014457379 -0.019737815 0.011892643 0.011633667
-0.0099856965 -0.0329693 0.029354194 -0.047247846 0.010352979 -0.013855584 0.0316227 0.00487931
00000000: 4fb9 cc3c ce7b 943d 3a3a 18bd 9733 01bd
00000010: ea7e bd3a 33b1 a1bc 5cd9 423c 239b 3e3c
00000020: 0c9b 23bc d10a 07bd 3578 f03c f586 41bd
00000030: 8b9f 293c 8802 63bc ce86 013d 9ee2 9f3b

running_mean f4 [16]
-0.07539988 -0.004176254 0.085330375 0.002303364 -0.065645255 0.08593383 0.069198966 -0.06385192
-0.027662104 0.043374803 -0.050943606 -0.009100702 0.007653587 0.0640832 0.026587693 -0.12849903
00000000: 416b 9abd f5d8 88bb b1c1 ae3d 09f4 163b
00000010: 0571 86bd 13fe af3d 30b8 8d3d ccc4 82bd
00000020: a39b e2bc c7a9 313d 3eaa 50bd 1c1b 15bc
00000030: f1ca fa3b 0e3e 833d 6fce d93c 4095 03be

running_var f4 [16]
0.2614833 0.33574763 0.1853215 0.3182953 0.21876249 0.17462409 0.24122263 0.30263036
0.19802698 0.26878205 0.22376193 0.24072836 0.31704175 0.37489104 0.2718608 0.31796443
00000000: 24e1 853e 1de7 ab3e ebc4 3d3e 9af7 a23e
00000010: 4603 603e a8d0 323e 1103 773e 5ef2 9a3e
00000020: 96c7 4a3e cd9d 893e d921 653e 7f81 763e
00000030: 4c53 a23e b8f1 bf3e 5731 8b3e 3ccc a23e

weight f4 [16]
1.1070542 1.0056621 1.0149459 1.0296712 0.992739 0.95852923 0.97802186 1.0464926
1.0021508 1.0438892 0.9925518 1.0349516 1.0392432 1.0692548 1.0420059 0.96563256
00000000: f4b3 8d3f 89b9 803f bfe9 813f 44cc 833f
00000010: 2524 7e3f 2c62 753f a45f 7a3f 78f3 853f
00000020: 7a46 803f 299e 853f e017 7e3f 4b79 843f
00000030: ec05 853f 57dd 883f 7360 853f b233 773f

bias f4 [16]
-0.017376889 -0.012447207 -0.016092177 0.026355043 -0.013479871 0.025488807 0.024703074 0.011877455
-0.054050606 -0.009857332 -0.03908616 0.047717795 0.061811414 -0.03269933 0.0313231 0.0019105446
00000000: fa59 8ebc 5fef 4bbc bed3 83bc 88e6 d73c
00000010: adda 5cbc e7cd d03c 1a5e ca3c a899 423c
00000020: 2b64 5dbd a680 21bc cf18 20bd bc73 433d
00000030: f72d 7d3d bcef 05bd a74c 003d 3d6b fa3a

running_mean f4 [16]
0.0020466186 -0.0021576681 -0.07553059 0.028987441 0.077580154 0.017531862 0.07748072 -0.035890903
-0.12252072 -0.064862356 -0.10340851 -0.04402807 -0.02099448 -0.028958317 0.030007403 -0.030939508
00000000: 9020 063b aa67 0dbb c8af 9abd 1277 ed3c
00000010: 58e2 9e3d fb9e 8f3c 36ae 9e3d 5702 13bd
00000020: 25ec fabd 8ed6 84bd d7c7 d3bd c756 34bd
00000030: 9efc abbc fe39 edbc 16d2 f53c da74 fdbc

running_var f4 [16]
0.26522288 0.3423239 0.17521901 0.3159368 0.2173598 0.17559029 0.2322007 0.29888868
0.19767736 0.26544484 0.22479579 0.24784942 0.31444186 0.37315628 0.26273012 0.33215994
00000000: 4bcb 873e 1445 af3e 9d6c 333e 78c2 a13e
00000010: 9193 5e3e f1cd 333e 05c6 6d3e f007 993e
00000020: ef6b 4a3e 63e8 873e de30 663e 3dcc 7d3e
00000030: 86fe a03e 570e bf3e 9084 863e de10 aa3e

weight f4 [32]
0.9447576 0.95683825 1.0001228 0.9768584 1.0903207 1.0002234 1.0102818 0.99304426
0.9359701 1.0107812 0.91124165 0.9973779 0.9711834 1.0124763 0.9722393 0.98047554
1.0751575 1.0859014 0.9609466 0.94320357 1.0210259 0.96955067 0.9955696 1.0154042
0.9752581 0.97305685 0.99020654 1.0066327 0.9841401 1.0479714 0.9977983 0.99884504
00000000: a2db 713f 5af3 743f 0604 803f 6413 7a3f
00000010: a18f 8b3f 5207 803f ea50 813f 2638 7e3f
00000020: bd9b 6f3f 4761 813f 2247 693f 2854 7f3f
00000030: 7a9f 783f d398 813f ade4 783f 7200 7b3f
00000040: c39e 893f d1fe 8a3f 9900 763f ca75 713f
00000050: fab0 823f 7934 783f a6dd 7e3f c4f8 813f
00000060: 84aa 793f 411a 793f 2d7e 7d3f 57d9 803f
00000070: 9bf0 7b3f ed23 863f b66f 7f3f 4fb4 7f3f

bias f4 [32]
0.13702671 0.0751164 0.0049522077 0.0077302423 -0.00929304 0.017772377 0.07082811 0.045897167
0.09205181 0.028576823 -0.0784922 0.04349112 -0.03414765 -0.01665606 0.07940549 0.0011457194
0.00044385812 0.009241274 -0.056721635 -0.019418387 -0.026506199 0.010487848 0.05768146 0.067193985
0.004200546 0.038241934 -0.02353078 -0.083695695 -0.031597752 0.010561224 0.05409011 0.05797741
00000000: bb50 0c3e a1d6 993d 2146 a23b f94d fd3b
00000010: d641 18bc 6097 913c 540e 913d abfe 3b3d
00000020: a985 bc3d f119 ea3c 85c0 a0bd bf23 323d
00000030: 68de 0bbd 4a72 88bc 589f a23d f72b 963a
00000040: a1b5 e839 b668 173c f254 68bd 4f13 9fbc
00000050: 8723 d9bc 39d5 2b3c 6543 6c3d 009d 893d
00000060: bca4 893b 93a3 1c3d 9fc3 c0bc a668 abbd
00000070: a56c 01bd fc08 2d3c 978d 5d3d b879 6d3d

running_mean f4 [32]
0.043505467 -0.013010679 0.019377716 0.004080048 0.08496789 -0.14377953 0.0711948 0.019587554
0.004556689 0.03440328 0.06834081 -0.037152335 0.0027276853 0.1326376 0.0336267 0.07638928
0.026192471 -0.060220305 -0.041664187 0.04027628 -0.101931356 0.030186355 -0.017393423 -0.11427949
-0.030539857 0.0010605557 -0.051801488 -0.11744512 -0.0126574235 -0.07412851 -0.006334547 -0.057835273
00000000: ca32 323d be2a 55bc 04be 9e3c ecb1 853b
00000010: a503 ae3d f13a 13be 94ce 913d 1476 a03c
00000020: 4750 953b 74ea 0c3d 44f6 8b3d 0c2d 18bd
00000030: f7c2 323b 27d2 073e 27bc 093d fc71 9c3d
00000040: 9891 d63c 91a9 76bd 11a8 2abd bef8 243d
00000050: 63c1 d0bd 6049 f73c a77c 8ebc 5e0b eabd
00000060: b92e fabc 5802 8b3a cc2d 54bd 1187 f0bd
00000070: 1561 4fbc b0d0 97bd 0892 cfbb aee4 6cbd

running_var f4 [32]
0.13611683 0.38901252 0.27047297 0.21915987 0.30954018 0.45561412 0.30649543 0.16917814
0.23930494 0.27087545 0.29016545 0.5823266 0.13552783 0.28843117 0.19728966 0.24491833
0.4528954 0.36202815 0.20529929 0.22028546 0.2827378 0.22333561 0.58446926 0.31855145
0.20609419 0.21621984 0.17183682 0.5825701 0.40845007 0.39534488 0.20742534 0.1748299
00000000: 3662 0b3e a62c c73e 6f7b 8a3e 726b 603e
00000010: 0d7c 9e3e 4146 e93e f8ec 9c3e 093d 2d3e
00000020: 5b0c 753e 30b0 8a3e 9190 943e 5b13 153f
00000030: cfc7 0a3e 40ad 933e 4d06 4a3e dfcb 7a3e
00000040: e8e1 e73e c15b b93e fa39 523e 8392 613e
00000050: 02c3 903e 17b2 643e c79f 153f 2d19 a33e
00000060: 5b0a 533e bc68 5d3e fef5 2f3e 5023 153f
00000070: 5e20 d13e a56a ca3e 4f67 543e 9c06 333e

weight f4 [32]
0.950064 1.0014461 1.0510205 1.0171828 1.0022188 0.97424483 1.0190355 0.9134751
0.9958089 0.94420964 1.0238254 1.0063748 0.95860016 1.0140429 0.9787448 0.95981383
1.0131702 0.9863562 0.93625724 0.93972456 0.9734134 0.98515403 1.0773776 1.0315918
0.9350691 0.9873468 1.003389 0.9396345 1.0036974 0.9014449 0.9792948 0.95451087
00000000: 6537 733f 632f 803f d787 863f 0c33 823f
00000010: b548 803f 1c68 793f c16f 823f 81d9 693f
00000020: 55ed 7e3f b9b7 713f b60c 833f e4d0 803f
00000030: d266 753f 28cc 813f 058f 7a3f 5cb6 753f
00000040: 90af 813f d781 7c3f 8eae 6f3f ca91 703f
00000050: 9f31 793f 0e33 7c3f 82e7 893f 330b 843f
00000060: b060 6f3f c3c2 7c3f 0d6f 803f e38b 703f
00000070: 2879 803f 18c5 663f 10b3 7a3f d35a 743f

bias f4 [32]
-0.07133849 -0.036036734 -0.07868018 0.033293813 0.061533954 -0.07086664 -0.060707625 0.077913955
-0.039983913 -0.094146244 -0.060605917 0.10576269 0.025240712 0.11538819 -0.04006097 0.037837423
0.010120544 0.07252541 0.056355845 0.00012821409 -0.011430542 0.06358404 -0.04434998 0.045606423
-0.020996485 -0.047435768 -0.027756521 0.0497612 -0.009085225 0.14281504 0.003758185 0.018608972
00000000: ea19 92bd 419b 13bd 1323 a1bd 185f 083d
00000010: 070b 7c3d 8722 91bd 8fa8 78bd 5a91 9f3d
00000020: 2cc6 23bd bfcf c0bd e93d 78bd 1c9a d83d
00000030: 9cc5 ce3c a550 ec3d f916 24bd 6afb 1a3d
00000040: a3d0 253c 3488 943d 63d5 663d 3571 0639
00000050: 2b47 3bbc 5938 823d 53a8 35bd cdcd 3a3d
00000060: d200 acbc 024c 42bd a561 e3bc 66d2 4b3d
00000070: 32da 14bc 1b3e 123e e24b 763b d871 983c

running_mean f4 [32]
-0.10033089 0.016979558 0.098939925 -0.0059590084 -0.042608302 -0.13100486 -0.10894231 -0.06165822
-0.032841284 0.01937152 0.10146926 0.02432097 0.0013970964 -0.046681255 -0.059755877 0.026268926
-0.12702577 0.07051701 -0.03447773 0.0048987344 -0.09493666 -0.0011612125 -0.108998455 0.063352816
-0.05673176 0.031865228 -0.046817683 -0.053692438 0.017467808 -0.021827426 0.07540963 -0.06925584
00000000: 487a cdbd b718 8b3c 04a1 ca3d c943 c3bb
00000010: 0b86 2ebd 2326 06be 251d dfbd 548d 7cbd
00000020: 9584 06bd 06b1 9e3c 1ecf cf3d c53c c73c
00000030: c71e b73a d834 3fbd 94c2 74bd ee31 d73c
00000040: 0b13 02be 396b 903d 8538 0dbd 9085 a03b
00000050: 276e c2bd d333 98ba 953a dfbd 1fbf 813d
00000060: 905f 68bd 1d85 023d e6c3 3fbd 9aec 5bbd
00000070: a618 8f3c 6ecf b2bc 5d70 9a3d 01d6 8dbd

running_var f4 [32]
0.13645749 0.39496547 0.2773157 0.21369967 0.30892166 0.4579542 0.29574123 0.17095879
0.23561205 0.27361435 0.29422554 0.5578272 0.13329622 0.29334944 0.20502238 0.24575518
0.45091882 0.3570559 0.20442344 0.2196838 0.27495217 0.21815635 0.60034543 0.30744395
0.20858662 0.2144556 0.17050356 0.58338094 0.41101348 0.38369057 0.20658374 0.17505814
00000000: 83bb 0b3e ea38 ca3e 53fc 8d3e 16d4 5a3e
00000010: fb2a 9e3e f978 ea3e 656b 973e d20f 2f3e
00000020: 4944 713e 2e17 8c3e bba4 963e c3cd 0e3f
00000030: ce7e 083e e631 963e 63f1 513e 3fa7 7b3e
00000040: d5de e63e 08d0 b63e 6154 513e caf4 603e
00000050: 88c6 8c3e 6164 5f3e 3db0 193f 4b69 9d3e
00000060: bb97 553e 409a 5b3e 7c98 2e3e 7458 153f
00000070: 5c70 d23e 1773 c43e b08a 533e 7142 333e

weight f4 [32]
0.95760727 0.81316733 0.9864834 0.9281195 0.7523342 0.9318271 0.9037084 0.94013655
0.91429627 1.0149043 0.83040226 0.9168245 1.0092099 0.95254046 0.8593456 0.986602
0.8536267 0.9660564 0.91970044 0.9842567 0.98851174 1.0329752 0.9235687 0.99798816
0.9822079 0.7886807 0.988861 1.0232836 0.9302312 0.98962206 1.0015662 0.9615501
00000000: c025 753f bc2b 503f 2d8a 7c3f 3d99 6d3f
00000010: f998 403f 398c 6e3f 6f59 673f caac 703f
00000020: 520f 6a3f 62e8 813f 3e95 543f 03b5 6a3f
00000030: ca2d 813f b1d9 733f 13fe 5b3f f391 7c3f
00000040: 4887 5a3f 794f 773f 7d71 6b3f 3ff8 7b3f
00000050: 1b0f 7d3f 8838 843f 006f 6c3f 277c 7f3f
00000060: fa71 7b3f fae6 493f ff25 7d3f f5fa 823f
00000070: a223 6e3f df57 7d3f 5233 803f 2628 763f

bias f4 [32]
0.16442062 0.27389026 0.24201086 0.2653774 0.23959315 0.24088535 0.2945473 0.18978445
0.21581902 0.14701672 0.32773867 0.21503599 0.22496691 0.18558852 0.1992975 0.1402783
0.22177541 0.2626728 0.29412147 0.23180786 0.32208988 0.19680992 0.13746247 0.14496341
0.2661252 0.15369178 0.19425774 0.26074716 0.22205289 0.2299419 0.23673628 0.2608505
00000000: e15d 283e 583b 8c3e b2d1 773e 8cdf 873e
00000010: e857 753e a6aa 763e e7ce 963e db56 423e
00000020: a9ff 5c3e 8d8b 163e 5dcd a73e 6532 5c3e
00000030: ba5d 663e eb0a 3e3e a514 4c3e 1da5 0f3e
00000040: 1819 633e 0d7d 863e 1797 963e 0a5f 6d3e
00000050: f7e8 a43e 8a88 493e f6c2 0c3e 4a71 143e
00000060: 9041 883e 6161 1d3e 80eb 463e a780 853e
00000070: d561 633e e475 6b3e ff6a 723e 328e 853e

running_mean f4 [32]
0.073016904 -0.014538872 0.019816415 0.08119973 -0.024071163 0.15091051 -0.06844956 -0.01734545
0.09636109 -0.0111574195 0.07212685 -0.026291141 0.01483641 0.074422434 0.062148407 0.014771022
-0.036376424 -0.0963789 0.07733092 0.011729355 0.08907267 0.07871275 0.08778717 -0.04504211
-0.06878109 0.05137655 0.08465485 0.09898594 0.034577973 0.012247476 -0.07229384 0.018305995
00000000: e389 953d 7334 6ebc 0956 a23c 0b4c a63d
00000010: e330 c5bc 4988 1a3e 482f 8cbd 0c18 8ebc
00000020: f758 c53d 9ccd 36bc 3eb7 933d 8560 d7bc
00000030: 6a14 733c ca6a 983d 548f 7e3d 2802 723c
00000040: 72ff 14bd 4d62 c5bd ac5f 9e3d 7b2c 403c
00000050: bb6b b63d 2634 a13d c3c9 b33d 137e 38bd
00000060: 1add 8cbd 3870 523d 865f ad3d 24b9 ca3d
00000070: a2a1 0d3d a3a9 483c cb0e 94bd 74f6 953c

running_var f4 [32]
0.5652059 0.35086045 0.5558603 0.7268466 0.57792234 0.5320506 0.81991464 0.8158027
1.1859205 0.8219913 0.3568132 0.78581786 0.7296355 0.7914004 0.46705848 1.005669
0.6871278 0.56010616 0.75304294 0.6647314 0.5543882 0.58421606 0.4754294 0.58115095
0.4223752 0.81619847 0.5549783 0.76263297 0.64969206 0.7178081 0.6107681 0.5530423
00000000: 55b1 103f fba3 b33e dc4c 0e3f 9e12 3a3f
00000010: b8f2 133f 7834 083f ede5 513f 72d8 503f
00000020: 3ecc 973f 066e 523f 38b0 b63e 5c2b 493f
00000030: 64c9 3a3f 3799 4a3f 4a22 ef3e c3b9 803f
00000040: 9ce7 2f3f 1e63 0f3f 6cc7 403f d62b 2a3f
00000050: 63ec 0d3f 2f8f 153f 7b6b f33e 4fc6 143f
00000060: 9041 d83e 62f2 503f 0f13 0e3f ea3b 433f
00000070: 3852 263f 46c2 373f 4c5b 1c3f 2e94 0d3f

weight f4 [32]
0.8293922 0.7752843 0.7947737 0.8306715 0.79421765 0.7985085 0.8179845 0.7995322
0.8164831 0.8724639 0.70619607 0.8450707 0.7743955 0.88834274 0.80426234 0.8550719
0.7947781 0.7819419 0.8217138 0.7627064 0.78523844 0.77408105 0.8025162 0.8177109
0.7609752 0.858842 0.798007 0.76777637 0.72017026 0.7889812 0.78581285 0.7949947
00000000: 0c53 543f 0879 463f 4a76 4b3f e3a6 543f
00000010: d951 4b3f 0e6b 4c3f 6f67 513f 24ae 4c3f
00000020: 0905 513f cb59 5f3f 44c9 343f 8e56 583f
00000030: c93e 463f 6e6a 633f 23e4 4d3f fee5 5a3f
00000040: 9476 4b3f 582d 483f d65b 523f ba40 433f
00000050: 6305 493f 2d2a 463f b471 4d3f 8055 513f
00000060: 45cf 423f 12dd 5b3f 304a 4c3f fe8c 443f
00000070: 145d 383f acfa 493f 082b 493f c684 4b3f

bias f4 [32]
0.082474954 -0.105364144 -0.07563419 0.03358586 0.0281375 -0.10258407 -0.104581155 0.06226411
0.09828136 0.07366096 -0.10695356 -0.033994563 -0.042441905 -0.08152762 0.0032407267 0.03264144
-0.0027004974 0.092220634 -0.008587176 0.079579934 -0.104535066 -0.026376542 0.0979767 0.07841669
0.09751972 0.038264304 -0.0030151322 0.050649825 -0.006347047 0.003472192 0.039216544 -0.030945303
00000000: a1e8 a83d 28c9 d7bd 19e6 9abd 5491 093d
00000010: 9d80 e63c 9917 d2bd a52e d6bd a708 7f3d
00000020: bd47 c93d 8fdb 963d 780a dbbd e23d 0bbd
00000030: 90d7 2dbd f4f7 a6bd 5f62 543b 08b3 053d
00000040: d4fa 30bb 2cde bc3d 3ab1 0cbc cefa a23d
00000050: 7b16 d6bd 9e13 d8bc 02a8 c83d ee98 a03d
00000060: 6bb8 c73d 08bb 1c3d 8699 45bb 3176 4f3d
00000070: e4fa cfbb b78d 633b 87a1 203d 0181 fdbc

running_mean f4 [32]
0.102172285 -0.1081733 0.079747796 0.09951259 0.0042638737 -0.1347211 -0.02204412 -0.029690465
0.014040108 -0.06402481 0.027457226 -0.03581626 0.07754444 -0.059317578 -0.08953546 -0.09720102
-0.021489497 0.07323146 -0.007662512 -0.0036685832 -0.098870434 -0.09251014 0.07076719 -0.021034205
-0.098237865 -0.070537284 -0.023074448 -0.009434129 0.085229106 0.0010269651 0.018997483 0.010563272
00000000: b43f d13d f789 ddbd d052 a33d 42cd cb3d
00000010: f7b7 8b3b 54f4 09be df95 b4bc 6b39 f3bc
00000020: 7b08 663c 711f 83bd faed e03c 12b4 12bd
00000030: 9fcf 9e3d fdf6 72bd 5e5e b7bd 5411 c7bd
00000040: be0a b0bc 60fa 953d cf15 fbbb 9d6c 70bb
00000050: 957c cabd f575 bdbd 63ee 903d ed4f acbc
00000060: ef30 c9bd da75 90bd a006 bdbc 9b91 1abc
00000070: 998c ae3d 3b9b 863a 9ca0 9b3c 9311 2d3c

running_var f4 [32]
0.5873721 0.35720715 0.5382587 0.68974 0.57818985 0.53857803 0.80572546 0.8423012
1.2213427 0.84321344 0.36302122 0.78815335 0.74538237 0.80836535 0.44638163 0.98462135
0.6930454 0.5704365 0.71319574 0.6609869 0.5988639 0.57317984 0.47640356 0.57718724
0.43328053 0.80352473 0.5437098 0.7424118 0.67204636 0.69114846 0.6030407 0.5441024
00000000: 055e 163f dbe3 b63e 52cb 093f cd92 303f
00000010: 4004 143f 40e0 093f 0644 4e3f 0da1 573f
00000020: f554 9c3f d6dc 573f ebdd b93e 6bc4 493f
00000030: 61d1 3e3f 08f1 4e3f 228c e43e 2510 7c3f
00000040: 6c6b 313f 2008 123f ff93 363f 7036 293f
00000050: 254f 193f eabb 123f 2beb f33e 8bc2 133f
00000060: f2d6 dd3e ccb3 4d3f 9130 0b3f b30e 3e3f
00000070: 3b0b 2c3f 1bef 303f e060 1a3f 4b4a 0b3f

weight f4 [16]
0.91770685 0.944738 0.9131163 0.90831035 0.9544994 0.9414169 0.9748538 0.9844483
0.9472058 1.0311742 1.0202699 1.0152208 0.945682 0.9349993 0.9888341 0.91171265
00000000: d6ee 6a3f 59da 713f fdc1 693f 0787 683f
00000010: 135a 743f b300 713f 0590 793f ce04 7c3f
00000020: 147c 723f 84fd 833f 3498 823f c1f2 813f
00000030: 3718 723f 1d5c 6f3f 3b24 7d3f 0066 693f

bias f4 [16]
-0.06903987 0.07326316 0.034714285 0.055018216 -0.10208206 -0.012080647 0.021718796 -0.034289945
0.08925895 0.025155526 -0.14465037 0.119583964 0.0021304584 0.0057541793 -0.080100976 0.020719765
00000000: c664 8dbd ff0a 963d 9130 0e3d c85a 613d
00000010: 6610 d1bd e8ed 45bc 9eeb b13c 9d73 0cbd
00000020: 65cd b63d f612 ce3c 3a1f 14be 70e8 f43d
00000030: 299f 0b3b 8e8d bc3b fb0b a4bd 7fbc a93c

running_mean f4 [16]
-0.026670324 0.0044489773 -0.09601452 0.024642406 0.113611855 -0.021123175 0.10355402 -0.0967208
0.1491049 0.04275344 -0.033680934 0.23075117 -0.074364014 0.21281534 -0.035151403 -0.17704459
00000000: b97b dabc bac8 913b 43a3 c4bd dfde c93c
00000010: 55ad e83d 820a adbc 2114 d43d 8e15 c6bd
00000020: f4ae 183e 3b1e 2f3d 05f5 09bd 094a 6c3e
00000030: 294c 98bd 44ec 593e ebfa 0fbd 2d4b 35be

running_var f4 [16]
1.8427001 1.312131 1.6221685 1.3633518 1.1139147 1.93878 1.072338 2.1551473
1.4945506 1.0793694 1.2499429 2.4074585 1.5173044 1.6124823 1.8477204 0.71245337
00000000: 99dd eb3f e9f3 a73f 38a3 cf3f 5082 ae3f
00000010: c294 8e3f f129 f83f 5f42 893f efed 0940
00000020: 6f4d bf3f c728 8a3f 21fe 9f3f cd13 1a40
00000030: 0837 c23f d265 ce3f 1a82 ec3f 5863 363f

weight f4 [16]
0.9443738 0.99735695 1.0515162 1.0030963 0.9625216 0.9196094 0.9930689 0.97207725
0.89753896 0.96763587 0.9147029 0.97982514 0.93321294 0.9271281 1.0269169 0.93259585
00000000: 7bc2 713f c952 7f3f 1598 863f 7665 803f
00000010: d167 763f 866b 6b3f c339 7e3f 0eda 783f
00000020: 1dc5 653f fcb6 773f f829 6a3f d2d5 7a3f
00000030: 0be7 6e3f 4458 6d3f 0372 833f 9abe 6e3f

bias f4 [16]
-0.08171108 0.07980346 -0.050586265 -0.09074163 -0.05399755 -0.073473334 0.16740353 -0.016641775
-0.011687683 -0.11255555 -0.12539552 -0.038956102 -0.08353005 0.11161839 -0.02610546 -0.069063336
00000000: 2458 a7bd ff6f a33d 8b33 4fbd bfd6 b9bd
00000010: 892c 5dbd 3079 96bd d56b 2b3e 5554 88bc
00000020: b27d 3fbc 8683 e6bd af67 00be 6f90 1fbd
00000030: ce11 abbd 2f98 e43d 1edb d5bc 1471 8dbd

running_mean f4 [16]
0.024847945 -0.12536564 -0.098252684 -0.00944255 -0.31794006 -0.17699237 0.10140109 0.051089294
0.11715097 -0.10722906 -0.080378965 0.104813725 -0.051696196 -0.026086867 -0.12632173 0.045017865
00000000: eb8d cb3c da5f 00be b438 c9bd edb4 1abc
00000010: 0ac9 a2be 7d3d 35be 60ab cf3d 0243 513d
00000020: d9ec ef3d e99a dbbd ba9d a4bd 94a8 d63d
00000030: 64bf 53bd 20b4 d5bc 7c5a 01be a764 383d

running_var f4 [16]
1.881087 1.3234067 1.4816217 1.4447671 1.1354592 1.9339824 1.0295722 2.0107975
1.4363835 1.0517406 1.2182876 2.5194747 1.5156304 1.6962667 1.9150742 0.6945174
00000000: 75c7 f03f 6465 a93f c8a5 bd3f 21ee b83f
00000010: ba56 913f bc8c f73f 06c9 833f e8b0 0040
00000020: 6adb b73f 709f 863f d9f0 9b3f 133f 2140
00000030: 2d00 c23f 441f d93f 2721 f53f e4cb 313f

weight f4 [16]
1.0249591 0.9609341 0.90742534 0.9859151 1.0277948 1.0182017 0.9752021 0.9234463
1.019223 0.9392433 1.0402656 0.97112066 0.9960547 0.916591 0.9878859 0.9961463
00000000: dc31 833f c7ff 753f 074d 683f ef64 7c3f
00000010: c88e 833f 6f54 823f d8a6 793f fa66 6c3f
00000020: e675 823f 4072 703f 6c27 853f 5d9b 783f
00000030: 71fd 7e3f b5a5 6a3f 17e6 7c3f 7203 7f3f

bias f4 [16]
-0.007990617 0.012688416 -0.0124310125 0.045862164 -0.012402824 -0.010338895 0.029846694 0.050058983
-0.043682344 -0.105098866 -2.8341507e-05 -0.10159754 0.06083362 -0.0030925942 -0.06111776 -0.029358644
00000000: 14eb 02bc 13e3 4f3c 72ab 4bbc f7d9 3b3d
00000010: 3735 4bbc 7864 29bc 0e81 f43c a60a 4d3d
00000020: 42ec 32bd 133e d7bd ecbe edb7 5f12 d0bd
00000030: ad2c 793d 1fad 4abb 9e56 7abd 8a81 f0bc

running_mean f4 [16]
-0.122887686 -0.1642082 -0.027776068 -0.02883238 -0.0032975695 -0.22767405 0.11458569 -0.012201229
-0.007451631 -0.062873326 0.16450496 -0.044359054 -0.08372871 -0.08626987 0.037625685 -0.010299003
00000000: 8aac fbbd 3226 28be a38a e3bc e231 ecbc
00000010: 091c 58bb 6323 69be e7ab ea3d aae7 47bc
00000020: d02c f4bb bbc3 80bd fd73 283e d7b1 35bd
00000030: f579 abbd 42ae b0bd 641d 1a3d 26bd 28bc

running_var f4 [16]
0.30200493 0.2276323 0.21186586 0.38834974 0.37176076 0.18494143 0.17962612 0.19928522
0.17619736 0.4321591 0.24896073 0.45589116 0.32898515 0.27088633 0.25280297 0.26209864
00000000: 64a0 9a3e 7118 693e 5df3 583e c7d5 c63e
00000010: 6d57 be3e 4961 3d3e e9ef 373e 6d11 4c3e
00000020: 156d 343e f543 dd3e 90ef 7e3e 916a e93e
00000030: be70 a83e 9db1 8a3e 646f 813e cb31 863e

weight f4 [16]
0.99829364 0.9145937 0.93982023 0.9935781 0.9655282 1.0097173 0.9991702 1.0332903
0.967012 0.9563914 0.8901717 1.0004985 0.89505666 0.9416469 1.0585988 1.0269421
00000000: 2c90 7f3f d022 6a3f 0f98 703f 225b 7e3f
00000010: db2c 773f 6b3e 813f 9ec9 7f3f db42 843f
00000020: 198e 773f 11d6 743f 4be2 633f 5610 803f
00000030: 6f22 653f c50f 713f 2a80 873f d772 833f

bias f4 [16]
-0.02684722 0.017116847 -0.04679511 -0.074769415 -0.027811963 0.06661767 -0.00203486 0.0012865161
0.026589656 0.061460543 -0.10803211 0.021212129 0.046244603 -0.0017647999 -0.020098217 0.072995186
00000000: b3ee dbbc a138 8c3c 3bac 3fbd b520 99bd
00000010: ead5 e3bc d86e 883d 495b 05bb 51a0 a83a
00000020: 8dd2 d93c 0dbe 7b3d f03f ddbd 0fc5 ad3c
00000030: fb6a 3d3d dc50 e7ba 04a5 a4bc 807e 953d

running_mean f4 [16]
-0.09052806 0.021297041 -0.0073622987 0.012800757 -0.10336613 0.0036732166 -0.15342483 -0.033143166
0.118251756 -0.109489225 -0.0476095 0.094843894 -0.03743637 0.07251437 -0.0017351164 0.070348196
00000000: c766 b9bd 2277 ae3c 703f f1bb 44ba 513c
00000010: 9fb1 d3bd 59ba 703b 661b 1dbe 21c1 07bd
00000020: fa2d f23d e33b e0bd 2e02 43bd 843d c23d
00000030: e156 19bd 6a82 943d d86c e3ba b712 903d

running_var f4 [16]
0.2994735 0.2270142 0.20898625 0.3919705 0.38012746 0.1924056 0.17939365 0.20171368
0.17745647 0.43969452 0.2447127 0.44709444 0.3134825 0.26324058 0.2578613 0.27766296
00000000: 9754 993e 6976 683e 7e00 563e 5bb0 c83e
00000010: 11a0 c23e f905 453e f8b2 373e 088e 4e3e
00000020: 26b7 353e a41f e13e f795 7a3e 90e9 e43e
00000030: c780 a03e 78c7 863e 6506 843e d729 8e3e

weight f4 [32]
0.91845065 0.9810909 0.97421813 0.98030525 0.8870428 1.0142705 0.92466396 0.9708689
0.96972287 1.0380322 0.9538324 0.94957453 0.92887956 0.9563411 0.9957369 0.9917469
1.0069934 0.94472164 0.9203624 0.9369299 0.94290876 0.9351351 0.97732496 0.96290857
0.96525025 0.93403304 0.94446844 0.9883439 0.9255427 0.84701216 0.99934036 0.9891358
00000000: 951f 6b3f c628 7b3f 5c66 793f 49f5 7a3f
00000010: 3d15 633f 9ed3 813f c7b6 6c3f dd8a 783f
00000020: c23f 783f 3dde 843f 5c2e 743f 5117 733f
00000030: 0dcb 6d3f c5d2 743f 9de8 7e3f 20e3 7d3f
00000040: 29e5 803f 47d9 713f df9c 6b3f a3da 6f3f
00000050: 7862 713f 0465 6f3f f831 7a3f 2d81 763f
00000060: a41a 773f ca1c 6f3f afc8 713f 1b04 7d3f
00000070: 5ef0 6c3f cad5 583f c5d4 7f3f 0138 7d3f

bias f4 [32]
-0.071863905 -0.024513615 -0.04884387 0.013472525 0.0054421546 0.020731973 0.07099452 -0.0107537685
0.06685247 -0.03455758 0.032727025 0.04789839 -0.025061086 0.069045275 0.0005367357 -0.06876542
0.053156156 0.007890364 -0.030222131 0.04551338 0.018805247 0.028747477 0.06355795 0.018778875
-0.005930124 0.049499147 0.005995074 -0.08694959 0.04226719 0.065542065 0.042893946 0.06974439
00000000: 622d 93bd c7d0 c8bc 8310 48bd debb 5c3c
00000010: 1a54 b23b 19d6 a93c 9365 913d 9330 30bc
00000020: f3e9 883d 408c 0dbd c60c 063d 1a31 443d
00000030: e84c cdbc 9c67 8d3d b9b3 0c3a e2d4 8cbd
00000040: 45ba 593d 9646 013c 6794 f7bc 3d6c 3a3d
00000050: 760d 9a3c d47f eb3c ac2a 823d 28d6 993c
00000060: 7c51 c2bb 9ebf 4a3d 5372 c43b a012 b2bd
00000070: 5c20 2d3d eb3a 863d 90b1 2f3d 26d6 8e3d

running_mean f4 [32]
-0.037192725 -0.024569385 0.03436572 -0.05314144 0.05354925 0.035817627 -0.042769324 -0.093512796
0.13709098 -0.027774377 0.11512751 0.073453665 -0.009859252 -0.0031313058 -0.057650935 -0.053816088
-0.09528909 0.09571636 0.046675768 0.123791814 0.0074941474 0.031203093 0.09032095 -0.041274697
0.07660557 0.088657364 0.014835901 -0.11501303 -0.050274983 -0.0010580207 -0.12327329 -0.06746427
00000000: 6657 18bd bc45 c9bc 12c3 0c3d d7aa 59bd
00000010: 7556 5b3d 81b5 123d e32e 2fbd a383 bfbd
00000020: 9461 0c3e 1787 e3bc f9c7 eb3d e06e 963d
00000030: b388 21bc 9836 4dbb 6323 6cbd 426e 5cbd
00000040: ed26 c3bd f006 c43d 172f 3f3d 9086 fd3d
00000050: 7791 f53b a19d ff3c 31fa b83d a80f 29bd
00000060: 62e3 9c3d fe91 b53d 4712 733c f48b ebbd
00000070: 24ed 4dbd 49ad 8aba b576 fcbd b52a 8abd

running_var f4 [32]
0.33296356 0.2690802 0.5485043 0.23295088 0.22413093 0.21548021 0.26493174 0.39902937
0.14344555 0.39683568 0.23985717 0.2664713 0.29920626 0.26701763 0.21848924 0.35785744
0.4222125 0.21112403 0.22172996 0.25451267 0.23128586 0.16991323 0.38247782 0.53469115
0.50075406 0.16873503 0.12294961 0.24674097 0.15634067 0.18541457 0.20274863 0.23455073
00000000: 337a aa3e e1c4 893e c76a 0c3f ad8a 6e3e
00000010: 9482 653e d8a6 5c3e 22a5 873e 944d cc3e
00000020: 64e3 123e 0c2e cb3e 1e9d 753e ed6e 883e
00000030: 9031 993e 89b6 883e a5bb 5f3e 1739 b73e
00000040: 3d2c d83e e630 583e 2e0d 633e 7c4f 823e
00000050: 33d6 6c3e bcfd 2d3e 22d4 c33e 85e1 083f
00000060: 6b31 003f e0c8 2c3e 01cd fb3d aaa9 7c3e
00000070: c517 203e 51dd 3d3e 569d 4f3e 112e 703e

weight f4 [32]
0.9967763 0.93938917 0.9530415 0.9087032 0.97349846 0.97126687 0.9261845 0.9235179
0.8959369 0.9356135 0.95415944 0.9795365 0.93016416 0.9821384 0.9321801 0.9643057
0.89956355 0.9968001 0.95278835 0.9611477 0.9619428 0.9616856 0.95225203 0.9232217
0.9344293 0.95890164 0.9442384 0.98313195 0.9751191 0.92030346 0.971866 0.92391306
00000000: bb2c 7f3f cf7b 703f 87fa 733f c6a0 683f
00000010: 3237 793f f2a4 783f 6d1a 6d3f ab6b 6c3f
00000020: 1f5c 653f 5e84 6f3f cb43 743f e7c2 7a3f
00000030: 3d1f 6e3f 6c6d 7b3f 5ba3 6e3f bddc 763f
00000040: cc49 663f 4b2e 7f3f f0e9 733f c70d 763f
00000050: e241 763f 0731 763f cac6 733f 4258 6c3f
00000060: c236 6f3f 947a 753f 9cb9 713f 89ae 7b3f
00000070: 68a1 793f 0299 6b3f 36cc 783f 9185 6c3f
