LTE/model/basecnn.pt (torch, 750781 bytes, 117 tensors)

weight f4 [16]
0.8737753 0.9477598 0.9132 0.8451707 1.021483 0.9294998 0.8189537 0.9033571
0.9626737 0.99441487 1.0036787 0.86324865 0.8963334 1.0269551 0.9176572 0.834794
00000000: bdaf 5f3f 63a0 723f 7ac7 693f 1b5d 583f
00000010: f4bf 823f b3f3 6d3f f3a6 513f 6942 673f
00000020: c971 763f f991 7e3f 8b78 803f ddfd 5c3f
00000030: 1b76 653f 4473 833f 95eb 6a3f 0fb5 553f

bias f4 [16]
-4.0988845e-05 1.0421816e-05 -3.8369553e-06 2.8527832e-06 5.625356e-06 -3.396006e-05 1.4000318e-05 -2.8228102e-05
-7.1445656e-06 -2.734994e-05 -4.5178207e-05 -9.2928894e-07 -2.2119082e-05 1.2512989e-05 -3.348582e-05 -1.0456271e-05
00000000: 70eb 2bb8 5cd9 2e37 32bf 80b6 7172 3f36
00000010: 71c1 bc36 5670 0eb8 e8e2 6a37 63cb ecb7
00000020: 5abb efb6 8d6d e5b7 bb7d 3db8 4074 79b5
00000030: 5e8c b9b7 e1ee 5137 2073 0cb8 586d 2fb7

running_mean f4 [16]
-0.031969387 -0.15219499 -0.1808377 0.19290459 0.029466748 -0.12668066 -0.0945461 -0.022890024
-0.15206534 -0.17169511 0.1659664 -0.18940522 0.016188318 0.18412702 0.13939652 -0.0063333856
00000000: 55f2 02bd 01d9 1bbe 852d 39be c888 453e
00000010: 4064 f13c 93b8 01be 63a1 c1bd dc83 bbbc
00000020: 04b7 1bbe d8d0 2fbe 19f3 293e 71f3 41be
00000030: 5d9d 843c cb8b 3c3e f6bd 0e3e 4a88 cfbb

running_var f4 [16]
1.3124603 1.2466663 1.7183478 0.2152409 2.4270718 0.24153626 2.4165688 1.3845984
0.2337163 0.286017 0.8401478 1.1007913 0.40942982 0.9604496 0.25840572 0.40086377
00000000: b3fe a73f c392 9f3f d2f2 db3f 1c68 5c3e
00000010: 2555 1b40 4855 773e 10a9 1a40 853a b13f
00000020: 5353 6f3e d270 923e ed13 573f bbe6 8c3f
00000030: c9a0 d13e 06e0 753f c14d 843e 043e cd3e

weight f4 [16]
0.87342864 0.98769724 0.93003166 0.99719095 1.0301986 0.9345535 0.9707301 0.90373635
0.96608365 0.97064364 0.9824248 1.0436778 0.97731555 0.8705643 1.0364449 1.0246975
00000000: 0599 5f3f bad9 7c3f 8e16 6e3f e847 7f3f
00000010: 8cdd 833f e63e 6f3f c581 783f 445b 673f
00000020: 4251 773f 1a7c 783f 3180 7b3f 3c97 853f
00000030: 5a31 7a3f 4ddd 5e3f 3aaa 843f 4a29 833f

bias f4 [16]
1.4177049e-05 -1.9481581e-06 5.2861674e-06 5.749911e-05 -1.236038e-05 -1.8756313e-05 -6.600256e-06 1.5259411e-05
2.2970677e-05 2.45238e-06 -2.2878803e-06 -3.136355e-05 -4.3428903e-05 -3.3653905e-05 3.4617922e-05 1.981694e-05
00000000: f6d9 6d37 1abd 02b6 d55f b136 332b 7138
00000010: 6e5f 4fb7 e056 9db7 c477 ddb6 5601 8037
00000020: 27b1 c037 9193 2436 7c89 19b6 5b8c 03b8
00000030: 6e27 36b8 9b27 0db8 b632 1138 8e3c a637

running_mean f4 [16]
0.07928604 0.02745137 0.12285807 -0.070537485 -0.10236425 -0.1004807 0.037829977 0.013982341
-0.12470901 -0.14259246 0.07385093 -0.032912385 0.10588979 0.048112653 -0.07056532 -0.11993661
00000000: b860 a23d b2e1 e03c 039d fb3d f575 90bd
00000010: 59a4 d1bd d3c8 cdbd 9bf3 1a3d 3016 653c
00000020: 7067 ffbd c203 12be 283f 973d 23cf 06bd
00000030: bfdc d83d c611 453d 8d84 90bd 53a1 f5bd

running_var f4 [16]
1.3125194 1.2464191 1.7185644 0.21531747 2.4260304 0.24153988 2.417251 1.3832531
0.23361729 0.28601152 0.8402675 1.1014782 0.40913993 0.9604621 0.2583875 0.40070254
00000000: a300 a83f a98a 9f3f ebf9 db3f 2f7c 5c3e
00000010: 1544 1b40 3b56 773e 3eb4 1a40 700e b13f
00000020: 5f39 6f3e 1a70 923e c51b 573f 3dfd 8c3f
00000030: ca7a d13e d8e0 753f 5e4b 843e e228 cd3e

weight f4 [32]
0.8783027 0.86072737 0.9100168 0.8956093 0.8705655 0.9046562 0.85526764 0.8548149
0.99894536 0.94042504 0.86447537 0.9555006 0.8732676 0.86344475 0.82271475 0.85166764
0.97106546 0.8826629 0.91904163 0.9727499 0.8836477 0.9096116 0.8714816 0.9572579
0.9375204 0.8958493 0.89858204 0.87805706 0.8541223 0.90391695 0.84342986 0.9254183
00000000: 72d8 603f a158 5c3f dcf6 683f a746 653f
00000010: 61dd 5e3f 8c97 673f d2f2 5a3f 26d5 5a3f
00000020: e2ba 7f3f b2bf 703f 424e 5d3f b09b 743f
00000030: 778e 5f3f b70a 5d3f 6f9d 523f e406 5a3f
00000040: bf97 783f 32f6 613f 5046 6b3f 2306 793f
00000050: bc36 623f 4edc 683f 6b19 5f3f db0e 753f
00000060: 5601 703f 6156 653f 7909 663f 59c8 603f
00000070: c2a7 5a3f 1a67 673f 05eb 573f 37e8 6c3f

bias f4 [32]
0.026786918 -0.0071316482 -0.031120151 -0.06464412 0.008828924 0.019749433 -0.018254213 0.018048786
0.008490901 -0.023175156 -0.010320242 0.058343694 -0.024787597 0.05986056 0.12978299 -0.0024274045
-0.0009069572 -0.010779038 -0.022713656 -0.021653857 0.007930352 -0.008988082 -0.0077854167 0.0089247925
0.033330467 0.06890948 0.08535556 -0.014261665 -0.0035857805 -0.010875927 -0.037833236 -0.021482406
00000000: 3d70 db3c 9ab0 e9bb b0ef febc 2364 84bd
00000010: 31a7 103c 90c9 a13c dc89 95bc 0cdb 933c
00000020: 6c1d 0b3c d3d9 bdbc 3b16 29bc ccf9 6e3d
00000030: 5c0f cbbc 5930 753d d5e5 043e 1715 1fbb
00000040: dec0 6dba 909a 30bc fd11 babc 6e63 b1bc
00000050: 4fee 013c c042 13bc cf1c ffbb 4b39 123c
00000060: 8785 083d 6a20 8d3d e5ce ae3d c2a9 69bc
00000070: 6aff 6abb f230 32bc 06f7 1abd dffb afbc

running_mean f4 [32]
0.011960332 0.027681584 0.011102708 -0.0036576309 -0.015094733 -0.05129859 -0.029450824 0.027665954
-0.03268722 0.035494998 -0.06005636 0.0051818867 0.023303952 -0.042059705 -0.0046478496 -0.057330757
-0.044967256 -0.059912547 0.05064504 -0.028088272 -0.002553709 -0.0062685832 -0.02310993 -0.04061183
-0.024463072 -0.037439916 -0.057221137 0.012746232 -0.04629747 -0.010843474 -0.023033777 0.02766294
00000000: 45f5 433c 7dc4 e23c 22e8 353c ddb4 6fbb
00000010: e64f 77bc 781e 52bd db42 f1bc b6a3 e23c
00000020: 09e3 05bd 3463 113d a8fd 75bd d1cc a93b
00000030: eee7 be3c cc46 2cbd fd4c 98bb a8d3 6abd
00000040: 962f 38bd dc66 75bd 2c71 4f3d 6019 e6bc
00000050: 215c 27bb b068 cdbb 0951 bdbc 9758 26bd
00000060: c866 c8bc 995a 19bd b660 6abd 92d5 503c
00000070: 6aa2 3dbd d4a8 31bc 55b1 bcbc 649d e23c

running_var f4 [32]
2.4094436 3.1092434 1.5813718 9.829797 4.411786 2.4424906 3.6495984 2.3624237
1.1179414 1.2732228 5.191337 0.90302753 2.3586998 2.8496287 4.8466535 3.210927
2.0291054 3.847634 1.1781163 2.1771743 2.6505861 1.3692013 2.2058194 1.2162267
1.9221661 1.2326164 1.4390087 2.5179005 5.88587 2.1042988 3.636626 2.5916348
00000000: 5334 1a40 d8fd 4640 646a ca3f d946 1d41
00000010: 5a2d 8d40 c451 1c40 0593 6940 f331 1740
00000020: b418 8f3f f7f8 a23f 6f1f a640 d02c 673f
00000030: f0f4 1640 5160 3640 c917 9b40 d47f 4d40
00000040: dddc 0140 a33f 7640 84cc 963f d356 0b40
00000050: 34a3 2940 fd41 af3f 252c 0d40 51ad 9b3f
00000060: 8a09 f63f 60c6 9d3f 7031 b83f 4825 2140
00000070: 0c59 bc40 d5ac 0640 7bbe 6840 58dd 2540

weight f4 [32]
0.8506668 0.94926834 0.8660263 0.91566604 0.97285724 0.8756413 0.9639546 0.9147771
0.83640766 0.8801907 0.9091968 0.8918529 0.9801608 0.8925635 0.9533198 0.9140022
0.8690003 0.90494007 0.868115 0.9071873 0.9003729 0.91123706 0.8853914 0.84625965
0.8606145 0.8511291 0.91010255 0.90440875 0.9382132 0.8737263 0.95174307 0.992429
00000000: 4dc5 593f 4003 733f e6b3 5d3f 1769 6a3f
00000010: 2c0d 793f 072a 603f bbc5 763f d52e 6a3f
00000020: d01e 563f 2d54 613f 1fc1 683f 7950 643f
00000030: d1eb 7a3f 0b7f 643f c40c 743f 0cfc 693f
00000040: ce76 5e3f 27aa 673f c93c 5e3f 6d3d 683f
00000050: d77e 663f d546 693f 03a9 623f 79a4 583f
00000060: 3b51 5c3f 99e3 593f 7bfc 683f 5587 673f
00000070: be2e 703f 87ac 5f3f 6fa5 733f d40f 7e3f

bias f4 [32]
-0.00888138 0.011714737 0.012228752 0.039768867 -0.04014489 0.06316067 0.022953063 0.053557355
-0.017074656 -0.034226574 -0.025619745 -0.019954428 -0.058563706 0.03285258 -0.06681198 0.008334858
0.04444221 0.002810849 -0.06377752 -0.028321555 0.070497066 0.0086176265 -0.039118823 -0.02589426
-0.02246544 0.087054886 0.019012768 -0.0014156485 -0.08491534 -0.039324816 0.043857537 0.0470938
00000000: 3583 11bc 2bef 3f3c 1a5b 483c aee4 223d
00000010: f86e 24bd 625a 813d 1008 bc3c f55e 5b3d
00000020: 26e0 8bbc 2a31 0cbd 80e0 d1bc 7877 a3bc
00000030: 7fe0 6fbd 6d90 063d b8d4 88bd ee8e 083c
00000040: 0909 363d 3936 383b ca9d 82bd 9b02 e8bc
00000050: c460 903d f230 0d3c 0f3b 20bd 3320 d4bc
00000060: 7109 b8bc d549 b23d aac0 9b3c 488d b9ba
00000070: 18e8 adbd 0f13 21bd f6a3 333d 6ee5 403d

running_mean f4 [32]
-0.0013922029 -0.049763232 0.061887193 0.043203194 0.012037403 -0.00204922 0.044908434 -0.00656925
-0.020952985 -0.009758767 0.035773747 0.029092016 0.0014300819 -0.0067907055 0.018334368 -0.012007413
-0.046679076 0.045843393 -0.023987643 0.02566364 -0.016557219 -0.053417273 0.040256567 0.048458092
-0.05331745 0.043778345 0.018234512 0.021639943 -0.046751164 -0.023137378 0.016187469 0.049925875
00000000: 947a b6ba 88d4 4bbd 6d7d 7d3d d5f5 303d
00000010: 8738 453c 354c 06bb e8f1 373d dd42 d7bb
00000020: 98a5 abbc 3ce3 1fbc 7e87 123d 6152 ee3c
00000030: 9671 bb3a 9184 debb f531 963c beba 44bc
00000040: 8f32 3fbd 48c6 3b3d bc81 c4bc 8e3c d23c
00000050: 01a3 87bc 12cc 5abd 12e4 243d fe7b 463d
00000060: 6663 5abd ec50 333d 8b60 953c 4046 b13c
00000070: 267e 3fbd 998a bdbc 959b 843c 137f 4c3d

running_var f4 [32]
2.6185942 1.1594983 2.1954343 2.4936888 1.9411483 12.198677 1.6315343 1.5142709
9.369184 3.1842718 2.4075816 5.998844 2.0238862 1.8113472 1.1151685 2.5322108
5.7094655 2.6830008 3.9058855 8.57624 2.0160577 2.3188653 2.7156885 1.8540817
6.729875 2.8854518 2.6787791 4.3966017 2.5596192 2.1765513 0.9869956 1.5048939
00000000: 0c97 2740 716a 943f ff81 0c40 9998 1f40
00000010: 8c77 f83f c82d 4341 1ed6 d03f a1d3 c13f
00000020: 2de8 1541 1ccb 4b40 d115 1a40 88f6 bf40
00000030: 5a87 0140 3ada e73f d7bd 8e3f be0f 2240
00000040: f1b3 b640 49b6 2b40 07fa 7940 4738 0941
00000050: 1707 0140 4a68 1440 d7cd 2d40 8d52 ed3f
00000060: 235b d740 3eab 3840 1e71 2b40 f6b0 8c40
00000070: cdd0 2340 9e4c 0b40 beab 7c3f 5da0 c03f

weight f4 [32]
0.96585095 1.000018 0.9672063 0.99984586 1.0047649 1.0193961 0.98534846 0.98396325
1.0332434 1.0188221 1.0259807 0.9767807 1.013192 0.9848199 1.0283804 1.0414346
0.98235583 0.99993044 0.9406893 0.9493154 1.0071793 1.0030419 1.0202621 1.0195487
0.9558147 1.0219324 0.9959906 0.9601791 0.9970743 1.0092008 1.0244341 0.96126235
00000000: 0242 773f 9700 803f d59a 773f e6f5 7f3f
00000010: 239c 803f 927b 823f cc3f 7c3f 04e5 7b3f
00000020: 5241 843f c368 823f 5653 833f 4d0e 7a3f
00000030: 47b0 813f 281d 7c3f f8a1 833f bb4d 853f
00000040: ac7b 7b3f 71fb 7f3f 04d1 703f 5606 733f
00000050: 40eb 803f ad63 803f f397 823f 9280 823f
00000060: 46b0 743f aece 823f 3df9 7e3f 4cce 753f
00000070: 4340 7f3f 7e2d 813f a820 833f 4a15 763f

bias f4 [32]
-0.022816181 -0.06802331 0.011435987 0.08292019 0.04146182 0.01403814 -0.13605155 -0.048947833
-0.073828645 0.03318477 0.04210048 -0.0026945337 0.033404775 -0.012592946 0.03165912 -0.030334003
0.048873037 -0.023000112 -0.012836672 0.028876288 -0.039358072 0.018847968 0.04650681 -0.052119553
0.059890397 -0.038936563 0.04221902 0.0044134404 0.01808749 0.014799886 0.036869813 -0.0072996453
00000000: 00e9 babc ce4f 8bbd 025e 3b3c 10d2 a93d
00000010: dfd3 293d 3a00 663c 1951 0bbe 867d 48bd
00000020: 7933 97bd c1ec 073d 8e71 2c3d c696 30bb
00000030: 72d3 083d a552 4ebc feac 013d 047f f8bc
00000040: 182f 483d bb6a bcbc e850 52bc f78d ec3c
00000050: ee35 21bd 0e67 9a3c ed7d 3e3d 507b 55bd
00000060: a24f 753d f27b 1fbd daed 2c3d 9f9e 903b
00000070: 372c 943c 397b 723c cd04 173d dd31 efbb

running_mean f4 [32]
0.103696324 -0.09376919 -0.07586668 0.028076032 -0.041546293 0.05256969 0.21176547 0.025852822
0.07441856 0.07147738 -0.05284096 0.16434811 -0.043883715 0.21156761 0.041140713 0.01941977
-0.0735992 0.026979415 0.10711947 -0.08067007 -0.16391644 0.058031116 -0.013771251 -0.06186349
-0.16062433 -0.040512733 -0.05717822 0.113333 -0.04301843 -0.0023713794 0.04727915 0.121354215
00000000: bd5e d43d 100a c0bd fd5f 9bbd b5ff e53c
00000010: 722c 2abd 5153 573d 0cd9 583e 4cc9 d33c
00000020: c268 983d bc62 923d c36f 58bd df4a 283e
00000030: 69bf 33bd 2ea5 583e 2a83 283d 3616 9f3c
00000040: 2dbb 96bd ef03 dd3c 7461 db3d 5a36 a5bd
00000050: b6d9 27be 09b2 6d3d d0a0 61bc 9264 7dbd
00000060: b47a 24be aef0 25bd b633 6abd 221b e83d
00000070: 1834 30bd 2569 1bbb c8a7 413d 8f88 f83d

running_var f4 [32]
1.7597173 1.0467905 1.5118479 1.1677594 1.3474112 1.0655835 1.4364237 1.140546
1.6882926 0.9452691 1.565303 1.5441302 1.7579715 1.3148345 1.7974586 1.3736839
2.5708308 3.1385217 1.7581694 1.7924728 1.5270662 1.9093485 1.7484567 2.7279332
2.5622373 1.8035045 1.18547 1.147619 1.3807539 2.1998255 2.1081188 1.9152864
00000000: 6b3e e13f 3bfd 853f 3b84 c13f 2479 953f
00000010: f877 ac3f 0a65 883f bbdc b73f 69fd 913f
00000020: f919 d83f 28fd 713f d95b c83f 0fa6 c53f
00000030: 3605 e13f 7f4c a83f 2013 e63f e0d4 af3f
00000040: 7e88 2440 8add 4840 b20b e13f c06f e53f
00000050: e876 c33f 8865 f43f 6ecd df3f 7596 2e40
00000060: b2fb 2340 3cd9 e63f 7bbd 973f 2ee5 923f
00000070: 8bbc b03f f1c9 0c40 6beb 0640 1b28 f53f

weight f4 [32]
0.9696176 0.965711 1.0079608 0.98362446 0.955518 0.94621223 0.9969666 0.97668856
0.9415016 0.95325863 0.9870151 1.0089747 0.97781867 0.95952123 0.9488378 0.9159977
1.014774 1.0279667 1.0415058 1.0088614 0.96387833 1.0000303 0.98868257 0.9886996
1.0079175 0.9892766 0.99165636 0.99406505 0.9629082 0.98635733 0.9780317 1.0039928
00000000: dc38 783f d638 773f dc04 813f d0ce 7b3f
00000010: d49c 743f f73a 723f 3439 7f3f 4308 7a3f
00000020: 4006 713f c208 743f 06ad 7c3f 1526 813f
00000030: 5352 7a3f 2fa3 753f 09e7 723f d37e 6a3f
00000040: 1de4 813f 6a94 833f 1050 853f 5f22 813f
00000050: bbc0 763f fe00 803f 4d1a 7d3f 6b1b 7d3f
00000060: 7103 813f 3b41 7d3f 31dd 7d3f 0c7b 7e3f
00000070: 2781 763f ea81 7c3f 4960 7a3f d682 803f

bias f4 [32]
-0.0077183573 -0.04075258 -0.09059061 -0.06702776 -0.023928808 0.0027026318 -0.0052024 0.04799653
-0.043483734 -0.06131097 0.0077320994 0.03559639 -0.016459446 0.05089078 -0.06773085 0.018079745
-0.0020761243 0.016433187 -0.060104825 0.04574783 -0.03224667 0.069245316 -0.05676382 -0.034988895
0.030296862 -0.05534565 0.020010622 0.00083092204 -0.04554086 -0.023481026 -0.026746152 -0.054282125
00000000: 46ea fcbb 2dec 26bd 9287 b9bd da45 89bd
00000010: 5906 c4bc a31e 313b e578 aabb 0298 443d
00000020: 001c 32bd 3621 7bbd 8d5d fd3b 85cd 113d
00000030: f6d5 86bc da72 503d 79b6 8abd f91b 943c
00000040: 960f 08bb e49e 863c 7a30 76bd 1462 3b3d
00000050: 1615 04bd 7dd0 8d3d 2e81 68bd 8450 0fbd
00000060: 2031 f83c 1fb2 62bd 51ed a33c 3cd2 593a
00000070: 0e89 3abd 485b c0bc bf1a dbbc ef56 5ebd

running_mean f4 [32]
-0.0802961 0.10626461 0.024455024 -0.0056135673 0.1266206 0.038628798 0.066389084 -0.13990757
0.07793568 0.06589554 -0.19358242 0.01632936 -0.021840652 0.06990146 0.12152257 0.017269747
-0.12934415 -0.07530655 -0.015613483 -0.025738537 0.041505117 -0.166008 0.15567826 -0.011217799
-0.2902007 0.13236469 -0.09874083 0.03382945 0.2444364 0.113748275 0.14510918 0.022163969
00000000: 4872 a4bd 43a1 d93d e755 c83c 04f2 b7bb
00000010: d5a8 013e 3b39 1e3d 00f7 873d ee43 0fbe
00000020: be9c 9f3d 3ef4 863d 783a 46be 26c5 853c
00000030: 2beb b2bc 7f28 8f3d d3e0 f83d 4979 8d3c
00000040: cb72 04be 523a 9abd b2cf 7fbc a0d9 d2bc
00000050: 4501 2a3d 00fe 29be 1f6a 1f3e dcca 37bc
00000060: 3095 94be 9c8a 073e a238 cabd c090 0a3d
00000070: 894d 7a3e dbf4 e83d 8097 143e 3691 b53c

running_var f4 [32]
2.0060058 1.6015435 1.708825 1.5079515 2.3872745 1.2738647 1.6695101 1.590074
1.3628308 1.7018266 2.323575 1.9197824 1.7039232 2.419037 4.594689 3.596847
1.7789751 1.7189534 1.329793 1.5726023 1.5948954 1.8649828 1.5183955 1.5527097
1.1962652 3.4351175 1.7120986 1.6468966 3.6461008 1.8305296 2.3238692 2.72395
00000000: 6662 0040 61ff cc3f c7ba da3f 8e04 c13f
00000010: 1bc9 1840 000e a33f 82b2 d53f 8b87 cb3f
00000020: 3d71 ae3f 74d5 d93f 74b5 1440 6ebb f53f
00000030: 281a da3f 81d1 1a40 b107 9340 be32 6640
00000040: 75b5 e33f aa06 dc3f a836 aa3f 084b c93f
00000050: 8825 cc3f c2b7 ee3f c95a c23f 31bf c63f
00000060: 381f 993f f7d8 5b40 0c26 db3f 82cd d23f
00000070: b759 6940 cb4e ea3f 46ba 1440 3255 2e40

weight f4 [32]
0.95717484 1.0432848 1.0313139 1.0011431 0.995134 1.0302516 0.99462765 1.0172558
1.0482793 1.0158268 1.0438346 0.9784894 1.0552603 0.9988167 1.0561279 0.99928206
0.98898196 1.0363483 1.0569652 1.0471531 0.9584708 1.0430603 1.0301381 1.0367796
1.0261961 1.0208428 1.002468 1.0141408 1.0426486 1.0180671 0.99089026 0.9816646
00000000: 6909 753f 5b8a 853f 1802 843f 7525 803f
00000010: 1ac1 7e3f 49df 833f eb9f 7e3f 7035 823f
00000020: 042e 863f 9d06 823f 5f9c 853f 487e 7a3f
00000030: c512 873f 74b2 7f3f 332f 873f f3d0 7f3f
00000040: ec2d 7d3f 10a7 843f a34a 873f 1d09 863f
00000050: 585e 753f 0083 853f 91db 833f 32b5 843f
00000060: 655a 833f faaa 823f df50 803f 5ecf 813f
00000070: 8275 853f 0650 823f fcaa 7d3f 5f4e 7b3f

bias f4 [32]
-0.11097161 -0.017570822 -0.031663917 -0.029471645 -0.013143275 -0.015077426 -0.016476385 -0.09898942
-0.029778076 -0.06773445 -0.0013860813 -0.04754119 -0.045089055 -0.03227672 -0.055372328 -0.08357012
-0.08818488 -0.048113808 -0.02177974 -0.075378016 -0.024941929 -0.025322804 -0.08147439 0.0015595924
-0.0676565 -0.07588014 -0.03475682 -0.08654659 -0.036240395 -0.066869736 -0.032601755 -0.025977429
00000000: 1545 e3bd aff0 8fbc 06b2 01bd 856e f1bc
00000010: e456 57bc 4f07 77bc 7cf9 86bc f7ba cabd
00000020: 27f1 f3bc 5cb8 8abd 2cad b5ba 8dba 42bd
00000030: 4daf 38bd 9834 04bd 18ce 62bd d026 abbd
00000040: 469a b4bd fc12 45bd 6d6b b2bc ca5f 9abd
00000050: 0453 ccbc c571 cfbc 0cdc a6bd 3d6b cc3a
00000060: 7e8f 8abd 0c67 9bbd 2b5d 0ebd 573f b1bd
00000070: cf70 14bd 00f3 88bd 6b89 05bd 9ece d4bc

running_mean f4 [32]
-0.030203937 0.027778456 -0.063232265 -0.009835325 -0.020618696 -0.03534996 0.002066453 -0.0181759
-0.0335315 -0.0030193145 0.042645913 0.06688747 -0.03422085 -0.030148003 0.005142895 0.016412884
-0.0038985044 -0.065360814 0.028218359 -0.04171772 -0.06637208 -0.0464085 -0.04574854 0.062322963
-0.0010363011 0.03533485 -0.061754335 0.029478591 0.0048870696 0.0011902924 0.0935372 0.0017440144
00000000: 3f6e f7bc a58f e33c eb7f 81bd 5824 21bc
00000010: 8ae8 a8bc 1fcb 10bd 546d 073b a0e5 94bc
00000020: 5358 09bd b1df 45bb 7bad 2e3d 4cfc 883d
00000030: 292b 0cbd f2f8 f6bc bb85 a83b 5074 863c
00000040: 0d7e 7fbb e4db 85bd 302a e73c 33e0 2abd
00000050: 16ee 87bd d716 3ebd d262 3bbd 5d46 7f3d
00000060: 7fd4 87ba 47bb 103d 1df2 7cbd 167d f13c
00000070: b623 a03b 9603 9c3a 6e90 bf3d 6a97 e43a

running_var f4 [32]
0.42146108 0.37282878 0.28394058 0.39105862 0.5342876 0.300074 0.41183934 0.31757277
0.6139572 0.6398142 0.6006909 0.28452894 0.41803035 0.32055932 0.35702375 0.43533683
0.3773384 0.510358 0.40504295 0.28788677 0.4700995 0.44119623 0.37090585 0.25961983
0.5320012 0.39677575 0.29623824 0.50284255 0.51071966 0.5024848 0.3953138 0.5550643
00000000: bfc9 d73e 6ae3 be3e a960 913e d638 c83e
00000010: 12c7 083f 4da3 993e 9bdc d23e e698 a23e
00000020: 4d2c 1d3f ddca 233f e1c6 193f c7ad 913e
00000030: 1308 d63e 5a20 a43e d1cb b63e 78e4 de3e
00000040: 8032 c13e d2a6 023f ca61 cf3e e565 933e
00000050: e2b0 f03e 79e4 e13e 5fe7 bd3e e4ec 843e
00000060: 3b31 083f 3126 cb3e 8aac 973e 4aba 003f
00000070: 86be 023f d8a2 003f 9266 ca3e b218 0e3f

weight f4 [32]
0.95044386 0.9656939 0.98757017 0.9608117 0.98924446 0.94486725 0.9183865 0.88260937
0.89428127 0.9707058 1.000154 0.9200477 0.9745443 0.94176006 0.9866378 0.9458642
0.9037082 0.9547054 0.93805414 0.9608762 0.9357144 0.9574811 0.9692514 0.93987143
0.9502444 0.94471216 0.95705336 0.953197 0.97733504 0.8874015 0.94750094 0.94805574
00000000: 4a50 733f b737 773f 66d1 7c3f c1f7 753f
00000010: 203f 7d3f d2e2 713f 611b 6b3f b0f2 613f
00000020: 9eef 643f 2d80 783f 0c05 803f 3f88 6b3f
00000030: bc7b 793f 3017 713f 4b94 7c3f 2824 723f
00000040: 6c59 673f 9367 743f 5124 703f fcfb 753f
00000050: fb8a 6f3f 7b1d 753f dc20 783f 6a9b 703f
00000060: 3843 733f a8d8 713f 7301 753f b804 743f
00000070: a132 7a3f bf2c 633f 6c8f 723f c8b3 723f

bias f4 [32]
0.02424828 -0.001836178 -0.0008207594 -0.030454753 0.026560374 -0.0071528545 0.042998828 0.014725355
0.0016678136 0.03802383 0.06427965 0.02049288 0.013911943 0.018124202 0.006922708 -0.0022244935
0.03588072 0.009849738 -0.02084052 0.04547274 0.032496583 0.039334286 0.054427315 0.07255865
0.004302818 0.039545562 -0.009054586 0.052412156 0.04589971 0.028176617 0.028056132 -0.00730828
00000000: 54a4 c63c e9ab f0ba 3b28 57ba 3f7c f9bc
00000010: 2495 d93c 7e62 eabb 8a1f 303d 9e42 713c
00000020: 8a9a da3a e0be 1b3d 0da5 833d afe0 a73c
00000030: ebee 633c 3579 943c e2d7 e23b cfc8 11bb
00000040: a9f7 123d cc60 213c bdb9 aabc a041 3a3d
00000050: 231b 053d fd1c 213d 2def 5e3d a199 943d
00000060: a7fe 8c3b 87fa 213d b059 14bc 21ae 563d
00000070: 5601 3c3d a6d2 e63c f9d5 e53c 4c7a efbb

running_mean f4 [32]
0.0702673 -0.035786767 -0.039320458 -0.037259232 0.010072899 -0.03547997 0.056889642 -0.0012396746
-0.040158723 0.10209466 0.09458021 -0.06358655 -0.058613457 0.027102027 -0.021279637 -0.018247783
0.08375391 -0.0067971596 -0.03909116 0.06795501 0.031239467 0.025599312 -0.036669467 0.02959265
0.014756679 -0.029864252 -0.024247928 0.016943363 0.04830754 0.025550647 0.0066485032 -0.021249324
00000000: 4de8 8f3d 2595 12bd 7d0e 21bd 239d 18bd
00000010: cd08 253c 7253 11bd 1d05 693d 947c a2ba
00000020: 797d 24bd 0117 d13d 45b3 c13d aa39 82bd
00000030: aa14 70bd 1205 de3c a252 aebc 607c 95bc
00000040: 2c87 ab3d b5ba debb 0d1e 20bd ff2b 8b3d
00000050: e9e9 ff3c a6b5 d13c b932 16bd 496c f23c
00000060: ffc5 713c e0a5 f4bc 97a3 c6bc cfcc 8a3c
00000070: 21de 453d 974f d13c b0db d93b 1013 aebc

running_var f4 [32]
0.43105522 0.43049148 0.6729274 0.46071532 0.609765 0.38823524 0.3508818 0.75621027
0.7372372 0.45461404 0.7420813 0.6020931 0.42046198 0.4819705 0.39437094 0.77334636
0.4030009 0.5579359 0.40653664 0.41192275 0.6208915 0.5529116 0.6725098 0.47676024
0.37182793 0.44833893 0.5046703 0.42193982 0.33615574 0.33125368 1.1290436 0.4041889
00000000: 45b3 dc3e 6169 dc3e f844 2c3f e1e2 eb3e
00000010: 8f19 1c3f c5c6 c63e c7a6 b33e ff96 413f
00000020: 94bb 3c3f 2cc3 e83e 0af9 3d3f c622 1a3f
00000030: cb46 d73e d6c4 f63e fdea c93e 07fa 453f
00000040: 2256 ce3e e3d4 0e3f 9225 d03e 8ae7 d23e
00000050: bff2 1e3f 9d8b 0d3f 9a29 2c3f eb19 f43e
00000060: 3b60 be3e ae8c e53e 1332 013f 7f08 d83e
00000070: 9b1c ac3e 159a a93e 8084 903f d9f1 ce3e

weight f4 [16]
0.9865734 1.0140316 0.9763812 0.9817452 0.9444516 1.0483581 0.9938123 0.96561795
1.0243369 0.99988294 1.0330626 1.0651238 1.0011581 0.9395872 0.9729637 0.9999471
00000000: 1390 7c3f cacb 813f 1ef4 793f a753 7b3f
00000010: 94c7 713f 9930 863f 7c6a 7e3f bd32 773f
00000020: 791d 833f 54f8 7f3f 653b 843f fa55 883f
00000030: f325 803f c988 703f 2614 793f 88fc 7f3f

bias f4 [16]
-0.022109302 -0.013262069 0.03609296 -0.01425943 -0.032172564 -0.019631527 -0.0045631523 -0.057261616
-0.0035605931 0.030487657 -0.031006945 0.0014062246 0.04709838 -0.06276185 -0.008052295 0.010973813
00000000: 911e b5bc 2649 59bc 36d6 133d 62a0 69bc
00000010: 61c7 03bd 4cd2 a0bc 7f86 95bb 288b 6abd
00000020: d758 69bb 40c1 f93c 4702 febc 1151 b83a
00000030: 3bea 403d 4989 80bd c6ed 03bc 82cb 333c

running_mean f4 [16]
0.025752507 -0.03301295 -0.10131358 -0.13221093 0.09061623 0.04707175 -0.006550821 -0.105753794
-0.07653481 0.11428447 -0.1390483 0.12349127 -0.038681757 0.019850438 0.13074435 -0.13520902
00000000: ecf6 d23c 9638 07bd 7f7d cfbd 4d62 07be
00000010: 0195 b93d 4fce 403d 45a8 d6bb 7295 d8bd
00000020: 48be 9cbd fa0d ea3d ad62 0ebe fee8 fc3d
00000030: c370 1ebd 639d a23c d9e1 053e 3c74 0abe

running_var f4 [16]
1.6854328 1.0575448 3.892961 1.20128 3.4828756 1.8277729 2.6453433 2.0754824
1.5711503 1.5646445 2.6432967 2.6891668 3.7732654 2.5003774 4.557061 2.277202
00000000: 43bc d73f a15d 873f 4626 7940 8bc3 993f
00000010: 6fe7 5e40 76f4 e93f 4e4d 2940 b4d4 0440
00000020: 741b c93f 4546 c83f c62b 2940 4f1b 2c40
00000030: 2e7d 7140 2f06 2040 72d3 9140 adbd 1140

weight f4 [16]
0.97214943 0.939818 1.0663061 0.9605554 0.9997981 0.98243594 1.0398333 0.97970116
0.9833155 0.95545 1.0136437 0.9698854 0.99929947 1.067534 1.0541254 1.0291716
00000000: c9de 783f ea97 703f b87c 883f f5e6 753f
00000010: c5f2 7f3f ec80 7b3f 4219 853f b2cd 7a3f
00000020: 91ba 7b3f 5f98 743f 14bf 813f 694a 783f
00000030: 17d2 7f3f f4a4 883f 95ed 863f e5bb 833f

bias f4 [16]
0.006880062 -0.0048694788 -0.028902343 0.0059378445 -0.029509386 -0.008212635 0.05883224 0.008041125
0.019705087 0.027981255 0.043914028 -0.055362727 0.06453015 0.025274528 0.02276407 -0.06920448
00000000: 2572 e13b 2690 9fbb 9bc4 ecbc 4092 c23b
00000010: abbd f1bc 4a8e 06bc 13fa 703d ecbe 033c
00000020: 906c a13c f238 e53c 32df 333d 07c4 62bd
00000030: 6228 843d 870c cf3c b77b ba3c 14bb 8dbd

running_mean f4 [16]
0.12189037 0.011986098 -0.010635613 -0.089318916 0.10566439 -0.058220387 -0.04266794 -0.24432287
-0.01794834 -0.06741514 -0.16795807 0.059844453 -0.02973325 -0.13564923 0.0014724027 0.05184824
00000000: a9a1 f93d 5761 443c ff40 2ebc d6ec b6bd
00000010: 9266 d83d 8078 6ebd 94c4 2ebd c62f 7abe
00000020: 6608 93bc f310 8abd 33fd 2bbe 751f 753d
00000030: 2593 f3bc a2e7 0abe a3fd c03a d25e 543d

running_var f4 [16]
1.4115196 1.4579498 1.9878296 2.4359918 1.2621424 2.199056 1.6850514 3.2789843
2.2175965 1.9038895 1.4146657 3.6087825 2.849929 2.0228734 2.2874146 1.4768119
00000000: adac b43f 199e ba3f 3371 fe3f 4ae7 1b40
00000010: e28d a13f 55bd 0c40 c4af d73f e1da 5140
00000020: 1aed 0d40 a7b2 f33f c413 b53f 4bf6 6640
00000030: 3d65 3640 c276 0140 0065 1240 2c08 bd3f

weight f4 [16]
1.064528 1.0580736 1.0476344 1.0493482 1.0444695 1.051274 0.99888295 1.0723819
1.0256029 1.0340266 0.99942636 1.0402371 1.0610044 1.0311832 1.0339184 1.059024
00000000: 7442 883f f56e 873f e218 863f 0b51 863f
00000010: 2db1 853f 2590 863f cbb6 7f3f cf43 893f
00000020: f546 833f fc5a 843f 68da 7f3f 7d26 853f
00000030: fece 873f d0fd 833f 7057 843f 198e 873f

bias f4 [16]
0.0035801097 -0.043191615 -0.009616429 -0.009277758 -0.008542263 -0.011105 0.022637045 -0.021787964
-0.005070934 -0.041873135 0.04631794 -0.004522845 0.031647753 0.008939451 -0.000506674 0.018321851
00000000: 46a0 6a3b b1e9 30bd 3a8e 1dbc bd01 18bc
00000010: d9f4 0bbc bff1 35bc 5371 b93c ac7c b2bc
00000020: 142a a6bb 2a83 2bbd e1b7 3d3d 6034 94bb
00000030: 13a1 013d c676 123c 51d2 04ba b517 963c

running_mean f4 [16]
-0.044826355 -0.0006429191 0.00924215 0.076501064 -0.026781464 -0.036226757 0.024098732 -0.010697662
-0.04644671 0.007423566 0.021147542 0.022597572 -0.043344736 -0.029640675 -0.025774162 -0.0583016
00000000: d79b 37bd 9289 28ba 636c 173c 97ac 9c3d
00000010: cd64 dbbc 8262 14bd b46a c53c 3f45 2fbc
00000020: e83e 3ebd 6341 f33b 9c3d ad3c 8b1e b93c
00000030: 408a 31bd 00d1 f2bc 5624 d3bc a9cd 6ebd

running_var f4 [16]
0.37155265 0.26909906 0.28314716 0.39987266 0.2979652 0.37310243 0.20097236 0.25368932
0.2417777 0.2647781 0.2850016 0.21374892 0.23725717 0.23393977 0.16272062 0.28195077
00000000: 263c be3e 5ac7 893e aaf8 903e 1cbc cc3e
00000010: e58e 983e 4807 bf3e b3cb 4d3e 91e3 813e
00000020: 9394 773e ff90 873e bbeb 913e ffe0 5a3e
00000030: 8bf3 723e e88d 6f3e 3ca0 263e da5b 903e

weight f4 [16]
1.0031216 1.0761936 1.0079067 1.0225184 1.0215454 1.0197792 1.0038848 1.033345
0.98674923 1.0000678 1.0010217 0.9877611 0.9586064 1.0536821 1.0696212 0.9906791
00000000: 4a66 803f b6c0 893f 1603 813f e2e1 823f
00000010: 00c2 823f 2088 823f 4c7f 803f a644 843f
00000020: 999b 7c3f 3902 803f 7b21 803f e9dd 7c3f
00000030: 3b67 753f 0edf 863f 59e9 883f 259d 7d3f

bias f4 [16]
-0.02427137 -0.0005128949 0.0325618 0.04068221 0.0051448946 0.025913635 -0.037173294 0.0051477617
-0.0134037975 0.005228259 0.026511082 -0.029596118 0.0049769343 -0.008892109 -0.038979962 -0.0011457667
00000000: c1d4 c6bc cb73 06ba 865f 053d 64a2 263d
00000010: 8196 a83b d548 d43c 0643 18bd 8eae a83b
00000020: 9a9b 5bbc d151 ab3b c52d d93c 8f73 f2bc
00000030: 8d15 a33b 35b0 11bc 74a9 1fbd 8d2d 96ba

running_mean f4 [16]
-0.04270538 0.0025952072 -0.044460814 0.07871322 0.024238206 0.05665604 0.007786742 -0.06345968
-0.02764391 0.011243953 0.05049396 0.0872298 -0.050455313 0.029785719 -0.0046394053 0.008634006
00000000: d6eb 2ebd 5a14 2a3b 8b1c 36bd 6634 a13d
00000010: 348f c63c 2a10 683d ed27 ff3b 26f7 81bd
00000020: 7b75 e2bc 8f38 383c c1d2 4e3d 8aa5 b23d
00000030: 3baa 4ebd 2e01 f43c 2706 98bb a575 0d3c

running_var f4 [16]
0.40917885 0.30337822 0.30264676 0.40312552 0.2666872 0.36170188 0.19302577 0.2819746
0.31301597 0.25103799 0.3775212 0.30610046 0.23028263 0.28995994 0.18690638 0.2650194
00000000: e47f d13e 6454 9b3e 84f4 9a3e 7866 ce3e
00000010: 3a8b 883e fd30 b93e 8ca8 453e fa5e 903e
00000020: a143 a03e 0d88 803e 754a c13e 33b9 9c3e
00000030: 36cf 6b3e a175 943e 6364 3f3e 9fb0 873e

weight f4 [32]
0.95019865 1.014452 0.96638024 0.98819464 1.0040921 1.0033201 1.0249637 0.95807207
1.0002724 0.97686183 1.0460918 0.995288 0.9955275 1.0301837 0.95734686 0.98022974
0.9810058 0.9430037 1.0115987 0.99646014 0.9691218 0.945635 0.9359712 0.9308235
0.99092126 0.9639418 0.9413302 0.97542065 1.0069065 0.973644 0.96398777 0.96617025
00000000: 3840 733f 90d9 813f b264 773f 53fa 7c3f
00000010: 1786 803f cb6c 803f 0332 833f 3644 753f
00000020: ed08 803f 9e13 7a3f 56e6 853f 32cb 7e3f
00000030: e4da 7e3f 0fdd 833f af14 753f 56f0 7a3f
00000040: 3223 7b3f b168 713f 117c 813f 0318 7f3f
00000050: 5e18 783f 2315 723f cf9b 6f3f 734a 6e3f
00000060: 04ad 7d3f e4c4 763f 04fb 703f 2bb5 793f
00000070: 50e2 803f bc40 793f e7c7 763f ef56 773f

bias f4 [32]
0.020109242 -0.003950502 0.06586823 0.0072980747 -0.013590768 0.031987105 -0.009098196 -0.059739083
-0.016125854 -0.016683549 -0.05010094 0.0078063738 -0.07283465 -0.035438213 -0.03438028 -0.011330226
-0.03246413 -0.017084042 -0.02207606 0.0012188983 -0.0078213485 -0.032794837 -0.0131425345 -0.0030472286
-0.0052748034 0.0027630727 -0.024363697 -0.0076337317 -0.0044738567 -0.01632617 0.02897595 0.022717632
00000000: 23bc a43c 3673 81bb ece5 863d b024 ef3b
00000010: d0ab 5ebc e904 033d 9a10 15bc f8b0 74bd
00000020: 5e1a 84bc f0ab 88bc a536 4dbd 9ccc ff3b
00000030: 552a 95bd a927 11bd 56d2 0cbd 6aa2 39bc
00000040: 1cf9 04bd d5f3 8bbc dad8 b4bc 71c3 9f3a
00000050: 1d25 00bc e153 06bd c953 57bc 03b4 47bb
00000060: 42d8 acbb ab14 353b 6096 c7bc 6224 fabb
00000070: 6e99 92bb 76be 85bc f95e ed3c 541a ba3c

running_mean f4 [32]
-0.025545795 0.03932895 -0.071130894 -0.050976716 0.051877853 0.027108287 0.024936404 0.07491656
0.062782556 0.06028336 -0.039524775 -0.07427535 0.021171436 0.0423152 0.0897636 0.0074350014
-0.070681795 -0.0037268037 0.03879068 0.029234847 -0.048581712 0.03641916 0.08448681 -0.076066576
-0.08115209 -0.069100685 -0.0248369 -0.031493627 -0.008754786 0.014586404 -0.0092293825 0.08327393
00000000: 6a45 d1bc 6517 213d 13ad 91bd f6cc 50bd
00000010: df7d 543d 3312 de3c 6e47 cc3c da6d 993d
00000020: 2494 803d afeb 763d bbe4 21bd ad1d 98bd
00000030: b86f ad3c b452 2d3d fad5 b73d 50a1 f33b
00000040: 9ec1 90bd 643d 74bb fae2 1e3d eb7d ef3c
00000050: 9efd 46bd 422c 153d 6c07 ad3d cbc8 9bbd
00000060: 1133 a6bd a984 8dbd c176 cbbc 76ff 00bd
00000070: 3c70 0fbc d0fb 6e3c d636 17bc 868b aa3d

running_var f4 [32]
0.37776864 0.3327132 0.21333936 0.21138217 0.18744121 0.31418914 0.20601195 0.23907694
0.673329 0.21061017 0.17619917 0.3646057 0.13348524 0.20114006 0.46132696 0.3078231
0.18647441 0.31813386 0.26006332 0.23824798 0.30576175 0.19110519 0.27184585 0.3132567
0.2757057 0.42376065 0.28111678 0.20362076 0.3122412 0.27679995 0.8190829 0.3130009
00000000: e46a c13e 6259 aa3e a275 5a3e 9174 583e
00000010: 97f0 3f3e 66dd a03e ccf4 523e 96d0 743e
00000020: 4a5f 2c3f 31aa 573e 8e6d 343e 99ad ba3e
00000030: 5bb0 083e a9f7 4d3e 0c33 ec3e fd9a 9d3e
00000040: 26f3 3e3e 71e2 a23e 0527 853e 47f7 733e
00000050: ce8c 9c3e 14b1 433e 612f 8b3e 2f63 a03e
00000060: 4c29 8d3e 28f7 d83e 8aee 8f3e f681 503e
00000070: 14de 9f3e b9b8 8d3e 6baf 513f a741 a03e

weight f4 [32]
1.0071032 0.9888009 0.99055994 0.9409048 0.9304565 0.9596669 1.0892795 1.001916
1.0040703 0.97468305 0.9973486 0.9467625 1.0041798 1.0011498 1.0058781 1.0298778
0.9671723 0.9539765 0.993054 1.0158919 0.94347215 1.0325744 0.982181 1.0193057
0.99145865 0.9744699 1.0511026 0.99479866 0.9217854 1.0001825 1.0124385 1.0289953
00000000: c2e8 803f 0e22 7d3f 5695 7d3f 23df 703f
00000010: 6632 6e3f bbac 753f 836d 8b3f c93e 803f
00000020: 6085 803f d484 793f 3d52 7f3f 075f 723f
00000030: f788 803f ad25 803f 9dc0 803f 09d3 833f
00000040: 9b98 773f ce37 743f c938 7e3f bf08 823f
00000050: 6487 713f 662b 843f 3770 7b3f 9c78 823f
00000060: 3cd0 7d3f dc76 793f 888a 863f 20ab 7e3f
00000070: 21fa 6b3f fb05 803f 9697 813f 1eb6 833f

bias f4 [32]
-0.0016566057 0.014150907 -0.060074 -0.023796193 -0.05334645 -0.012244917 0.011823236 -0.014715735
0.033072766 -0.009109353 0.0027820682 -0.059952326 0.01996506 0.07273454 0.006374581 0.031896286
-0.0047322568 -0.00060984015 0.07365975 0.002482047 -0.020573989 -0.067749254 0.06966672 0.031550907
-0.02481903 0.039868705 0.047298826 0.018091397 -0.006279744 0.04289928 -0.021649504 -0.017495679
00000000: 7722 d9ba 35d9 673c 2810 76bd 3cf0 c2bc
00000010: cf81 5abd e89e 48bc 3fb6 413c 441a 71bc
00000020: 4f77 073d 653f 15bc 5c53 363b 9290 75bd
00000030: c48d a33c d9f5 943d dce1 d03b aea5 023d
00000040: 0c11 9bbb aedd 1fba ecda 963d d7a9 223b
00000050: c88a a8bc 1fc0 8abd 6dad 8e3d 863b 013d
00000060: 4751 cbbc 5e4d 233d 6abc 413d 6934 943c
00000070: 50c6 cdbb 28b7 2f3d 4d5a b1bc 1953 8fbc

running_mean f4 [32]
-0.094400756 0.022623178 0.06186793 0.017695552 0.034432456 -0.036232293 -0.06855036 0.023511427
0.00019491055 -0.0056655235 0.058452174 -0.010043307 -0.0284587 -0.03514828 -0.053151082 -0.018980147
0.03877784 -0.035748594 0.08347604 0.0779899 0.13034841 -0.07261986 -0.02868311 -0.070491664
-0.03330335 0.019246334 -0.009583751 -0.03390966 -0.045999628 0.046706058 -0.0411145 -0.026798595
00000000: 2f55 c1bd 3e54 b93c 3a69 7d3d 43f6 903c
00000010: 0c09 0d3d 5068 14bd 2264 8cbd 099b c03c
00000020: e760 4c39 dba5 b9bb 8c6b 6f3d af8c 24bc
00000030: 3822 e9bc a5f7 0fbd f3b4 59bd 417c 9bbc
00000040: 83d5 1e3d 1e6d 12bd 7cf5 aa3d 2bb9 9f3d
00000050: 0e7a 053e b9b9 94bd d7f8 eabc ef5d 90bd
00000060: 1869 08bd 7daa 9d3c 2a05 1dbc dbe4 0abd
00000070: 1b6a 3cbd da4e 3f3d ae67 28bd ba88 dbbc

running_var f4 [32]
0.31178313 0.40259215 0.29679066 0.29012138 0.23368229 0.44914404 0.23521838 0.19652547
0.42978713 0.361923 0.16926415 0.23088036 0.21340133 0.34914306 0.38143387 0.28827545
0.36314523 0.14738123 0.41549256 0.3169571 0.32232714 0.17187214 0.3885906 0.31044605
0.29507956 0.26794583 0.21399921 0.17448644 0.37869424 0.26296914 0.21166365 0.17062367
00000000: 0aa2 9f3e 8f20 ce3e f2f4 973e ca8a 943e
00000010: 694a 6f3e 35f6 e53e 16dd 703e f93d 493e
00000020: 0f0d dc3e f94d b93e 9553 2d3e e76b 6c3e
00000030: e185 5a3e e1c2 b23e 4d4b c33e d798 933e
00000040: 2cee b93e 1beb 163e 71bb d43e 3348 a23e
00000050: 1008 a53e 40ff 2f3e 59f5 c63e c9f2 9e3e
00000060: ab14 973e 3230 893e 9c22 5b3e 93ac 323e
00000070: 36e4 c13e e4a3 863e 5bbe 583e f9b7 2e3e

weight f4 [32]
1.045857 1.1320962 1.0038178 0.93068504 0.9367752 1.0313747 0.97865784 1.027756
0.98980486 1.0400507 0.94546866 1.0361809 0.9707042 1.0310405 1.0690368 0.9950049
1.0147548 1.0056995 0.9573903 1.050013 1.0160888 0.98935544 0.99327433 1.0852122
1.0438392 1.0360017 0.95902437 1.040559 1.123874 1.0366079 1.2223247 0.97817653
00000000: a4de 853f 87e8 903f 1a7d 803f 6041 6e3f
00000010: 80d0 6f3f 1604 843f 5289 7a3f 828d 833f
00000020: da63 7d3f 6220 853f 3c0a 723f 93a1 843f
00000030: 1280 783f 23f9 833f 33d6 883f a4b8 7e3f
00000040: 7ce3 813f c3ba 803f 8817 753f d366 863f
00000050: 330f 823f 6646 7d3f 3a47 7e3f 3ce8 8a3f
00000060: 869c 853f b49b 843f 9f82 753f 0a31 853f
00000070: 1adb 8f3f 91af 843f 2375 9c3f c769 7a3f

bias f4 [32]
-0.014768628 -0.07923627 -0.03341419 -0.08282148 0.0105165895 -0.04681484 0.018187635 0.015934566
-0.05509903 -0.09090075 -0.0010855137 -0.08913687 0.00017924758 -0.039292034 -0.09663283 -0.0303412
-0.031911 -0.12441333 -0.056916393 0.017694525 -0.0073499684 -0.09548641 -0.016074536 -0.05462926
-0.04203002 -0.054655544 -0.017312614 0.00636583 0.03529153 -0.005465444 -0.05404411 -0.02419509
00000000: 1ef8 71bc a046 a2bd 51dd 08bd 4f9e a9bd
00000010: c64d 2c3c ebc0 3fbd 3cfe 943c 3589 823c
00000020: 85af 61bd 2c2a babd cc47 8eba 648d b6bd
00000030: 68f4 3b39 aff0 20bd 6fe7 c5bd 1c8e f8bc
00000040: 1cb5 02bd 6acc febd 2a21 69bd 1cf4 903c
00000050: 01d8 f0bb 618e c3bd bfae 83bc eec2 5fbd
00000060: ac27 2cbd 7ede 5fbd 2fd3 8dbc 7498 d03b
00000070: da8d 103d 7817 b3bb 5b5d 5dbd c834 c6bc

running_mean f4 [32]
0.04451045 -0.029796034 -0.059154943 -0.013172821 -0.03294258 0.030621676 -0.016489143 0.088192135
-0.0005062219 -0.005736979 0.019024326 -0.024350774 -0.04195602 -0.0147975655 -0.07345406 0.035236806
0.02772751 0.02120037 -0.05999501 -0.043198887 -0.046825882 0.008214118 -0.023799518 0.016199406
-0.026453683 -0.027092073 -0.012497276 0.0014401414 -0.041120153 -0.02319699 0.059773445 -0.039390538
00000000: 9750 363d d016 f4bc 744c 72bd d1d2 57bc
00000010: ccee 06bd 4fda fa3c 3d14 87bc 149e b43d
00000020: fab3 04ba 45fd bbbb e7d8 9b3c 467b c7bc
00000030: 13da 2bbd 7d71 72bc 156f 96bd 7854 103d
00000040: ce24 e33c 66ac ad3c 54bd 75bd 51f1 30bd
00000050: 7fcc 3fbd 8294 063c 35f7 c2bc 9eb4 843c
00000060: 65b5 d8bc 32f0 ddbc 60c1 4cbc 20c3 bc3a
00000070: 9b6d 28bd 9d07 bebc 00d5 743d f957 21bd

running_var f4 [32]
0.5686152 0.51203924 0.524829 0.6507911 0.71105295 0.4127335 0.30848858 0.828276
0.70217496 0.6751552 0.46467525 0.3663061 0.48650652 0.42029333 0.53344995 0.47964075
0.6671735 0.6330134 0.6224034 0.6139916 0.50520355 0.65142035 0.54754674 0.545101
0.54132503 0.6480899 0.314678 0.44737792 0.59380394 0.6428572 0.38207057 0.33264565
00000000: c490 113f 0115 033f 315b 063f 3f9a 263f
00000010: 9107 363f ce51 d33e 37f2 9d3e e509 543f
00000020: bdc1 333f f9d6 2c3f eae9 ed3e 798c bb3e
00000030: 6217 f93e b030 d73e 2d90 083f 7993 f53e
00000040: e2cb 2a3f 2b0d 223f d455 1f3f 8e2e 1d3f
00000050: 0555 013f 7cc3 263f 062c 0c3f bd8b 0b3f
00000060: 4794 0a3f 38e9 253f 7a1d a13e b80e e53e
00000070: 8903 183f 4a92 243f c19e c33e 8850 aa3e

weight f4 [32]
0.87332875 0.9747748 0.87428427 0.91772145 0.943417 0.9574344 0.9237099 0.953
1.046392 0.9892616 0.92949814 0.9267124 0.8209487 0.9213619 0.84424645 0.8604357
0.92179143 0.89338917 0.9394637 0.94828945 0.87837386 0.8977264 0.9809493 0.9674482
0.9614714 0.9212295 0.9522687 0.9637186 0.9374874 0.8967971 0.8609564 0.9402028
00000000: 7992 5f3f d78a 793f 18d1 5f3f cbef 6a3f
00000010: c783 713f 6c1a 753f 4178 6c3f cff7 733f
00000020: 2cf0 853f 4040 7d3f 97f3 6d3f 063d 6d3f
00000030: b229 523f 60de 6b3f 8920 583f 8445 5c3f
00000040: 86fa 6b3f 27b5 643f b180 703f 19c3 723f
00000050: 1cdd 603f 66d1 653f 7e1f 7b3f afaa 773f
00000060: fd22 763f b2d5 6b3f e2c7 733f 43b6 763f
00000070: 2dff 6f3f 7f94 653f a367 5c3f 21b1 703f

bias f4 [32]
0.008304045 0.0053198193 0.021465374 0.018470673 0.0009595312 0.08660099 0.022894606 0.031399354
0.04172424 -0.0075291144 -0.009743746 0.05710673 -0.015965745 -0.030801872 -0.0067916666 -0.013274143
0.0017228031 0.010420057 0.052985433 0.022291545 0.029301314 0.06470565 -0.016765619 0.055789158
0.013070184 0.026797596 0.030843586 0.050307773 0.028095353 0.0063175117 -0.010998844 0.024370328
00000000: b00d 083c e151 ae3b 27d8 af3c cf4f 973c
00000010: 0c89 7b3a dc5b b13d 788d bb3c 9c9c 003d
00000020: 09e7 2a3d cab6 f6bb 3ca4 1fbc bfe8 693d
00000030: 98ca 82bc 3554 fcbc a18c debb cb7b 59bc
00000040: aecf e13a e3b8 2a3c 4107 593d c29c b63c
00000050: 4f09 f03c 6584 843d 0d58 89bc 2c83 643d
00000060: 5324 563c a286 db3c b0ab fc3c 860f 4e3d
00000070: 3a28 e63c 2103 cf3b 7f34 34bc 48a4 c73c

running_mean f4 [32]
-0.035255034 0.010719904 -0.0463502 0.0041353013 0.05807223 -0.009327444 0.023619477 -0.015688045
0.05565748 0.046533357 0.034684554 0.005743021 -0.0053796116 -0.036286585 0.012807511 -0.021843879
0.018893063 -0.03023358 0.020053534 0.0030418818 -0.024288794 0.04879429 0.022333276 -0.026285438
-0.040666338 0.056623295 0.044719 0.060102962 0.014730313 -0.0044397996 0.018943733 -0.017406875
00000000: 9567 10bd 89a2 2f3c b5d9 3dbd 6c81 873b
00000010: 26dd 6d3d 23d2 18bc a27d c13c 3784 80bc
00000020: 19f9 633d c399 3e3d 6411 0e3d f42f bc3b
00000030: 7447 b0bb 3ea1 14bd 98d6 513c eff1 b2bc
00000040: a0c5 9a3c 6aac f7bc 4f47 a43c 4f5a 473b
00000050: 4bf9 c6bc 85dc 473d 46f4 b63c 8f54 d7bc
00000060: bf91 26bd d4ed 673d 452b 373d 862e 763d
00000070: 6957 713c bd7b 91bb e32f 9b3c dd98 8ebc

running_var f4 [32]
0.72595 0.6478577 0.79647046 0.58833855 1.0648239 0.5598834 0.76113105 0.886536
0.4779308 0.57949483 0.68207866 0.36795866 0.7011891 0.73729855 0.96572465 0.7835886
0.93223107 1.002913 0.8753851 0.93210834 0.93756026 0.93457484 0.76501805 0.48278093
0.70930666 0.7918882 0.6741486 0.42698663 1.3244506 0.6526172 0.9536041 0.6362845
00000000: dcd7 393f 01da 253f 7de5 4b3f 5b9d 163f
00000010: 264c 883f 8554 0f3f 7cd9 423f 06f4 623f
00000020: 59b3 f43e c659 143f b59c 2e3f 1465 bc3e
00000030: 2181 333f 99bf 3c3f bb39 773f 4399 483f
00000040: b2a6 6e3f 745f 803f 3d19 603f a79e 6e3f
00000050: f303 703f 4c40 6f3f 39d8 433f 102f f73e
00000060: 1f95 353f 2fb9 4a3f 0195 2c3f fe9d da3e
00000070: 9987 a93f ec11 273f 661f 743f 8ae3 223f

weight f4 [16]
0.96670914 0.99257207 0.99198383 0.9742017 0.95427233 0.9493841 0.9709705 0.94473535
0.99836576 0.93698287 0.99313176 0.93239856 0.96840245 0.95788866 0.9521677 0.97647643
00000000: 407a 773f 3419 7e3f a7f2 7d3f 4865 793f
00000010: 314b 743f d60a 733f 8691 783f 2dda 713f
00000020: e694 7f3f 1cde 6f3f e23d 7e3f acb1 6e3f
00000030: 39e9 773f 3138 753f 43c1 733f 5cfa 793f

bias f4 [16]
-0.022897195 0.03899656 0.0951694 -0.0051550074 -0.0010010995 -0.010024559 0.09028606 -0.069267504
-0.05370724 -0.074205965 0.046412595 0.029527603 0.04010419 -0.0062158494 0.04631654 0.008406828
00000000: e692 bbbc dbba 1f3d 2de8 c23d 56eb a8bb
00000010: 5337 83ba 0c3e 24bc e6e7 b83d 1fdc 8dbd
00000020: 1ffc 5bbd 4cf9 97bd 221b 3e3d dfe3 f13c
00000030: 4b44 243d 53ae cbbb 6ab6 3d3d cbbc 093c

running_mean f4 [16]
-0.03413507 0.040503323 -0.15929806 -0.10102577 0.06291908 0.16041815 0.023818824 -0.09062485
-0.094496086 0.07005659 -0.094370455 0.14835215 -0.12599161 0.09412621 0.2526159 0.08031724
00000000: 37d1 0bbd d0e6 253d 081f 23be 99e6 cebd
00000010: b8db 803d a844 243e b21f c33c 8599 b9bd
00000020: 2a87 c1bd d479 8f3d 4c45 c1bd a0e9 173e
00000030: f203 01be 3ec5 c03d df56 813e 5d7d a43d

running_var f4 [16]
1.5130483 1.3272204 1.0683593 1.0191122 2.17917 1.6437438 1.2360214 1.7407379
2.243307 2.794969 1.3127269 2.087387 1.3816895 2.4726956 1.7033253 1.569711
00000000: 91ab c13f 5ce2 a93f ffbf 883f 4572 823f
00000010: 8577 0b40 3266 d23f f335 9e3f 80d0 de3f
00000020: 5892 0f40 c6e0 3240 6f07 a83f c097 0540
00000030: 34db b03f a540 1e40 9006 da3f 4aec c83f

weight f4 [16]
0.95725095 0.96837014 0.9945595 0.9378968 0.98191595 0.9125804 0.9311765 0.9856245
0.95149153 0.98163635 1.0085934 0.9207585 0.9927674 0.97719043 0.94662905 0.9946962
00000000: 660e 753f 1be7 773f 749b 7e3f 011a 703f
00000010: d85e 7b3f de9e 693f 9561 6e3f e351 7c3f
00000020: f394 733f 854c 7b3f 9719 813f d4b6 6b3f
00000030: 0126 7e3f 2729 7a3f 4856 723f 69a4 7e3f

bias f4 [16]
0.00014729345 -0.1256627 -0.08933301 -0.072798744 0.022549452 0.026394464 0.03462345 0.010958815
0.028021215 -0.058530193 -0.046282966 0.01091432 -0.05356266 -0.011073718 -0.0341735 -0.0071172547
00000000: c972 1a39 b9ad 00be 3af4 b6bd 8217 95bd
00000010: a1b9 b83c 3439 d83c 52d1 0d3d 9a8c 333c
00000020: bf8c e53c 5bbd 6fbd 3593 3dbd fad1 323c
00000030: 8564 5bbd 8a6e 35bc 83f9 0bbd dc37 e9bb

running_mean f4 [16]
0.007848035 0.17799081 0.08201091 -0.012634567 -0.10227716 -0.04386734 -0.1254771 -0.23003401
0.03536901 0.12188958 0.15935847 0.070097186 0.08916785 -0.091378964 0.02338479 0.020155076
00000000: 0b95 003c 3943 363e 56f5 a73d 3701 4fbc
00000010: b076 d1bd 3dae 33bd 127d 00be 098e 6bbe
00000020: 18df 103d 3ea1 f93d de2e 233e 1d8f 8f3d
00000030: a29d b63d e524 bbbd 7691 bf3c 421c a53c

running_var f4 [16]
1.2178108 1.8155429 2.1655867 0.891978 1.9624615 1.0050353 1.9196037 1.4421519
1.3875489 2.2508216 1.6659476 2.7201018 1.544095 1.5159824 2.0734289 1.6568367
00000000: 39e1 9b3f b663 e83f f998 0a40 ac58 643f
00000010: f031 fb3f ffa4 803f 93b5 f53f 6f98 b83f
00000020: 349b b13f 760d 1040 c53d d53f 2616 2e40
00000030: e8a4 c53f b60b c23f 0fb3 0440 3a13 d43f

weight f4 [16]
0.9828279 1.015031 0.9689788 0.9889863 0.9471906 0.99775034 0.92968476 0.9829614
0.9804742 1.0090966 0.97301847 0.9932406 0.9277536 0.9876959 0.95997655 0.99672925
00000000: 9c9a 7b3f 89ec 813f ff0e 783f 352e 7d3f
00000010: 157b 723f 916c 7f3f d2ff 6d3f 5ca3 7b3f
00000020: 5b00 7b3f 142a 813f bd17 793f 0445 7e3f
00000030: 4381 6d3f a3d9 7c3f 06c1 753f a629 7f3f

bias f4 [16]
-0.06863998 -0.040134363 0.016321376 -0.037964072 -0.007186946 0.041372135 0.07705498 0.008527101
0.0114819305 -0.020730965 0.03743117 0.04045205 -0.028119894 0.062454376 0.008937728 0.0095275035
00000000: 1e93 8cbd ee63 24bd 68b4 853c 3780 1bbd
00000010: 7980 ebbb d475 293d 00cf 9d3d 41b5 0b3c
00000020: b51e 3c3c fcd3 a9bc 6d51 193d 0cb1 253d
00000030: b15b e6bc 29d0 7f3d 8c6f 123c 3f19 1c3c

running_mean f4 [16]
-0.046615124 -0.109539 -0.045979585 -0.08495164 -0.123713806 -0.020065293 0.11516548 0.08297782
0.14858925 -0.057217427 -0.037592515 0.021971684 -0.020302722 -0.038776483 -0.12680177 -0.08278573
00000000: 80ef 3ebd fc55 e0bd 1755 3cbd 20fb adbd
00000010: aa5d fdbd f85f a4bc e1db eb3d 46f0 a93d
00000020: c827 183e d25c 6abd 9cfa 19bd f6fd b33c
00000030: e551 a6bc 17d4 1ebd 53d8 01be 918b a9bd

running_var f4 [16]
0.4329998 0.2912452 0.35880288 0.5044233 0.43432832 0.24036367 0.21665913 0.2737684
0.41941625 0.3953211 0.3728138 0.27526554 0.41098505 0.57039905 0.1822177 0.3046483
00000000: 26b2 dd3e 171e 953e 03b5 b73e e321 013f
00000010: 4860 de3e e521 763e e4db 5d3e 5f2b 8c3e
00000020: babd d63e 8767 ca3e 73e1 be3e 9bef 8c3e
00000030: a26c d23e ac05 123f 4797 3a3e ddfa 9b3e

weight f4 [16]
0.9620815 0.9534969 0.9772898 0.95881325 0.97993237 0.9654588 0.9635163 1.0156293
1.0255162 0.95927244 0.99943334 1.0118039 0.96271664 0.9241468 0.99411196 0.95639056
00000000: f94a 763f 5f18 743f aa2f 7a3f c974 753f
00000010: d9dc 7a3f 4f28 773f 01a9 763f 2400 823f
00000020: 1d44 833f e192 753f ddda 7f3f ca82 813f
00000030: 9974 763f e294 6c3f 1f7e 7e3f 03d6 743f

bias f4 [16]
-0.01350517 -0.107114755 0.052748486 -0.01151317 -0.109532446 -0.039745394 0.073844075 -0.0139647955
-0.007708957 0.024695328 0.011520838 0.04391481 -0.061974403 0.06698102 -0.064975366 -0.1033139
00000000: ca44 5dbc fb5e dbbd cc0e 583d bca1 3cbc
00000010: 8c52 e0bd 11cc 22bd 903b 973d 99cc 64bc
00000020: 6b9b fcbb db4d ca3c e6c1 3c3c 04e0 333d
00000030: dfd8 7dbd 582d 893d ce11 85bd 3d96 d3bd

running_mean f4 [16]
-0.120398134 -0.16489324 0.031182213 -0.07994541 -0.15290421 0.122382574 -0.08617626 0.00436179
0.0023089945 -0.15100685 0.13900873 -0.1334866 -0.13618757 -0.07157286 -0.15644908 -0.02994374
00000000: 4c93 f6bd c6d9 28be d771 ff3c 6bba a3bd
00000010: ec92 1cbe b7a3 fa3d 2e7d b0bd 59ed 8e3b
00000020: 8052 173b 8aa1 1abe 4e58 0e3e b6b0 08be
00000030: c174 0bbe cb94 92bd 3034 20be 934c f5bc

running_var f4 [16]
0.45252252 0.5568255 0.30401164 0.2428458 0.5438817 0.23835634 0.21508114 0.25535712
0.1820884 0.45548484 0.5179973 0.51095957 0.43068168 0.46114478 0.38250977 0.5145311
00000000: 08b1 e73e 1e8c 0e3f 6aa7 9b3e 92ac 783e
00000010: d53b 0b3f af13 743e 3b3e 5c3e 2bbe 823e
00000020: 6275 3a3e 4f35 e93e 799b 043f 3fce 023f
00000030: 4f82 dc3e 2b1b ec3e 52d8 c33e 4fb8 033f

weight f4 [32]
0.9695542 0.98856866 0.9595569 0.9709722 0.93744624 0.97786653 0.95026964 0.94015115
1.0009426 0.9930287 0.96625113 0.9853034 0.9549441 0.9961284 0.9568574 0.9931804
0.97625923 0.9379711 0.9237614 0.9568604 0.98161626 0.98496693 0.9692847 0.9744915
0.98340803 0.94087696 0.9583569 0.98855466 0.993702 0.98993385 0.9506406 0.92921716
00000000: b434 783f d612 7d3f 85a5 753f a291 783f
00000010: 7afc 6f3f 7655 7a3f df44 733f bfad 703f
00000020: e31e 803f 2137 7e3f 3c5c 773f d83c 7c3f
00000030: 3777 743f 4502 7f3f 9bf4 743f 1241 7e3f
00000040: 20ec 793f e01e 703f a17b 6c3f cef4 743f
00000050: 344b 7b3f cb26 7c3f 0b23 783f 4678 793f
00000060: a1c0 7b3f 50dd 703f e156 753f eb11 7d3f
00000070: 4163 7e3f 4e6c 7d3f 2f5d 733f 2de1 6d3f

bias f4 [32]
0.03894949 0.050096534 -0.0078790365 0.0120608695 -0.052245244 0.019491542 -0.037055943 -0.053705122
-0.012304754 0.009937488 -0.02620946 0.015616733 -0.119297706 0.025930885 0.0049284147 -0.008557031
-0.010646884 -0.01762415 -0.033666324 -0.030703457 -0.01002157 -0.030752592 -0.014322471 -0.009703434
-0.04592182 0.016873937 -0.0057658968 -0.0016870769 -0.06471878 0.06701554 0.045032043 0.08312785
00000000: 8089 1f3d 0632 4d3d 1317 01bc f49a 453c
00000010: 1cff 55bd baac 9f3c f9c7 17bd e7f9 5bbd
00000020: e199 49bc d8d0 223c 39b5 d6bc 53dd 7f3c
00000030: 5b52 f4bd 026d d43c 8a7e a13b ca32 0cbc
00000040: 4570 2ebc 8560 90bc b3e5 09bd d185 fbbc
00000050: 8331 24bc dcec fbbc cca8 6abc 27fb 1ebc
00000060: 8518 3cbd 363b 8a3c d9ef bcbb e820 ddba
00000070: 488b 84bd 723f 893d 8573 383d ef3e aa3d

running_mean f4 [32]
-0.17844437 0.06457185 -0.1381727 -0.043345325 0.14127246 0.07659748 0.0054869065 -0.09121781
0.034585312 0.074846976 0.004884472 0.17916718 0.0032365804 -0.02588142 -0.034067977 -0.098609366
-0.014907536 0.0164538 0.03015418 -0.1255463 -0.09031834 0.015267225 -0.09431182 -0.077480406
-0.030567525 0.13003527 -0.00044371985 -0.043468297 0.06076797 -0.12639561 -0.13969721 -0.14731938
00000000: 1fba 36be 3f3e 843d 257d 0dbe de8a 31bd
00000010: baa9 103e 24df 9c3d 82cb b33b 67d0 babd
00000020: 54a9 0d3d 5f49 993d ec0d a03b 9a77 373e
00000030: cf1c 543b 4605 d4bc dd8a 0bbd b5f3 c9bd
00000040: bd3e 74bc 1fca 863c e605 f73c 368f 00be
00000050: d2f8 b8bd 6223 7a3c 8e26 c1bd 0cae 9ebd
00000060: bf68 fabc f727 053e 12a3 e8b9 d00b 32bd
00000070: d6e7 783d da6d 01be c90c 0fbe e4da 16be

running_var f4 [32]
0.32307896 0.1509695 0.19040924 0.6398597 0.7566538 0.2947719 0.53190637 0.30083102
0.54757506 0.27345058 0.61866117 0.36888617 0.2603661 0.3839011 0.3457748 0.14873204
0.25877714 0.2964618 0.27006006 0.32771042 0.16256465 0.2449935 0.34682965 0.25926402
0.3012022 0.39751092 0.22114722 0.23674963 0.32027823 0.19543102 0.38249847 0.29004353
00000000: 9b6a a53e c097 1a3e a4fa 423e d8cd 233f
00000010: 10b4 413f 58ec 963e 042b 083f 8606 9a3e
00000020: e12d 0c3f b701 8c3e 9460 1e3f a6de bc3e
00000030: b54e 853e af8e c43e 6509 b13e 364d 183e
00000040: 707e 843e d7c9 973e 5045 8a3e a9c9 a73e
00000050: 5977 263e 93df 7a3e a893 b13e 41be 843e
00000060: 2d37 9a3e 8d86 cb3e 6b74 623e 7f6e 723e
00000070: 82fb a33e 121f 483e d7d6 c33e 9680 943e

weight f4 [32]
0.9842933 0.9660893 0.94642264 0.9875142 1.0052034 0.94615656 1.0039747 1.0096493
0.9488278 0.9540496 1.0000815 0.970973 0.9466556 0.904637 0.9361315 0.9345901
0.9466525 0.9799444 0.96792716 0.9717793 0.9761002 0.93518984 0.9790705 0.95509285
0.95545757 0.9850384 0.96049356 0.98053527 0.9913719 0.95181614 0.97190785 0.9419799
00000000: a5fa 7b3f a151 773f c148 723f bbcd 7c3f
00000010: 81aa 803f 5137 723f 3e82 803f 303c 813f
00000020: 61e6 723f 983c 743f ac02 803f b091 783f
00000030: 0558 723f 4a96 673f 50a6 6f3f 4c41 6f3f
00000040: d157 723f a3dd 7a3f 13ca 773f 87c6 783f
00000050: b4e1 793f 9a68 6f3f 5da4 7a3f f780 743f
00000060: de98 743f 7a2b 7c3f e8e2 753f 5c04 7b3f
00000070: 8dca 7d3f 39aa 733f f4ce 783f 9825 713f
